weights/checkpoint_critic.pth (torch_old, 308749 bytes, 9 tensors)

fcs1.weight f4 [256, 33]
00000000: eb2c afbe 41e3 d83d 4b5e 433d 071b 0fbf
00000010: fac7 57be 6b9d 28be ac7a d13e fdfe 033c
00000020: 792c 8a3d 7ca9 1e3b 12f8 c6bc 84cd 183d
00000030: 351d b83d d0e3 693e f233 a13d bc4a f53c
00000040: eb2f bc3d a250 283e 4372 33bf 19cd 23bf
00000050: a112 a13b cab1 a33b c2aa 4dbc 6039 8f3d
00000060: 7f84 2d3d c9e8 173d 1a37 80be f40c 8b3d
00000070: 72dc e63d e0fa bebb 1e6b 16bd 064c 663d
00000080: c4ae 8abe d044 ac3b ab32 95bd e7d8 033d
00000090: 405a 10bf 6d03 0f3f 6836 b23f a27c 2a3d
000000a0: 6662 e93c 5f54 e3bd cf22 aebd 7b1e 343d
000000b0: 0209 39bc fd92 2a3d 79bd 1a3b 69cf 473d
000000c0: cf1c 7bbc eaee b73e 5b11 9bbe 9c55 96be
000000d0: 283a 0ebf c1dc 343b 0ee2 10bc 42db 45bb
000000e0: 29fb 40bd 9e4b 48bc d94b cb3c 455a 8d3d
000000f0: 9507 bb3d 76d0 b13d 96bc 4c3d e272 cfbc
00000100: 9af4 313d 6669 533f 5f51 803e 560b 94be
00000110: 4940 353e a7e6 b8bd 782d 923e ea75 f7be
00000120: 8d44 96be 37a6 45bc cc5b 083d 0471 8a3b
00000130: cfac 8dbc 1878 9fbc d61f 2d3d 1974 e3bd
00000140: aba8 233e 6197 13bd 71af cc3d ccc9 a53e
00000150: 4807 38bf b9dc 823f 9acc 85bc ce40 56bd
00000160: afa7 f13c 3421 f9bb 8fc3 0bbd 78ba 55bd
00000170: e5b6 943b e910 143e 25a1 07bd e0e3 01bb
00000180: d140 53bd 4834 3e3d 6b28 3ebf 1056 38be
00000190: 4d17 533d 6fc3 ad3d 4087 003f 92ff 83bf
000001a0: 2976 b1bd e06b c5be 5201 97bd fc89 dabd
000001b0: 39bf 0cbd e981 193d 61ca 413e 35c1 213d
000001c0: a75e 123e b51f 82be 5210 803d 33e9 39bf
000001d0: 1d09 05bd e35b e9be 896b ca3c 5daf 1d3c
000001e0: 7d7d 24be 873a 8bbc db21 4a3d ab74 fbbd
000001f0: d9f9 50bd bd92 b23d 9c26 a03e dc6e 7bbd
00000200: e649 61bd 9e5e 90be 82ae 14bd 3273 f13c
00000210: 4987 c83d f226 b8bd 46c7 143e 1a5f 133b
00000220: 1b2b ab3d c9b7 283f 9b88 92be 7240 8a3c
00000230: b79b 0bbe c957 b63d 6254 013d c644 013d
00000240: c309 303d db4b 68bb 6267 243e 54ca 6dbd
00000250: e3c4 b83e d025 573e 39c1 10bf bcc1 efbe
00000260: 5f38 6f3c 6602 c5bd c36e 5c3c 4f40 0b3d
00000270: 381c e23c ee12 053c 795e c03d d0a4 193e
00000280: 3d5d 4c3e 7830 05bc e46e 4bbe 6012 193c
00000290: 5a48 9dbf e9ef a43d e3d9 d73e 74ce 253e
000002a0: 6f20 563f 29d2 16bf 3c68 023e baa3 9e3d
000002b0: c3cf 76bd 74de 95be 4e9b 52be 30b8 8fbd
000002c0: 7722 2fbe 74b5 07bd cce1 02be 1568 643c
000002d0: 5cbe 023d 7f9e cb3e 536d 2e3e 1b73 9cbe
000002e0: 28ec e83e 2b2c f33d 085c 003e 22ca 08bb
000002f0: a5eb eb3d 4410 253e a03b dcbd b5c2 9d3d
00000300: 4310 89bd 399e 96bd c48a 073d 4334 3f3d
00000310: cc9e 70bd f63a c33c 49b5 673d 3c7c 16be
00000320: 45de 4a3d 3ab6 c0bd 0f6e 2dbc 6ced 103f
00000330: 126a e6be aa91 873d 6f96 e3bd 8560 84ba
00000340: 99e3 243d ceb8 053c fa04 c83d 517b c3bc
00000350: 2b97 bc3c 5814 8f3c b86e e0be 43c6 f43d
00000360: fa10 18be 2cce 0c3d 3287 3f3c 2b30 13bc
00000370: db52 ea3b 4ebf 6abd 04d8 21bd b9fd dfbc
00000380: 3fe9 9abd 8d58 273e ed92 b6bd 68d8 86bc
00000390: 7dda 1cbe 2cf5 cb3c b07e cd3f 9a48 883e
000003a0: b8f8 b6bd d4bb b2bd 6270 b9bd 0daa 71be
000003b0: 7ac1 0a3f c910 b23d 24f6 443c 36dc aabd
000003c0: d6d8 903e 83eb 05be 83ca 5dbd f914 0c3d
000003d0: 5788 c5bd 2065 913d 3b69 b1bd a065 ee3e
000003e0: 05e6 373f 5a54 f73b 5ab9 0cbf 3982 87bc
000003f0: 3c79 16bd 7e1f 0fbd 0d41 dabd aa23 6bbd
-0.34213957 0.1059022 0.047697347 -0.55900615 -0.21072379 -0.164663 0.40913904 0.008056399
0.06746764 0.0024209907 -0.024288211 0.03730537 0.08989946 0.2284081 0.07871236 0.029942863
0.09188827 0.16437009 -0.70096225 -0.6398483 0.004915551 0.0049955593 -0.012552919 0.06993365
0.042362686 0.037087236 -0.2504204 0.0678958 0.11272515 -0.0058282465 -0.03672325 0.056224845
-0.2708646 0.0052572265 -0.07285055 0.032189276 -0.5638771 0.558646 1.3922853 0.041622765
0.028489303 -0.11100077 -0.08502733 0.04397438 -0.011293652 0.041644085 0.002361147 0.048781786
-0.015326693 0.35924464 -0.3028668 -0.2936219 -0.5555749 0.00275974 -0.008842958 -0.0030190502
-0.047114525 -0.01222506 0.02481644 0.06901983 0.091323055 0.08682339 0.049984537 -0.025323335
0.04344616 0.825827 0.2506208 -0.289149 0.17700304 -0.090283684 0.28550315 -0.4833215
-0.29349175 -0.0120635545 0.03329067 0.0042248983 -0.017294316 -0.019466445 0.04226669 -0.11106128
0.1598231 -0.036033038 0.099944 0.3238052 -0.7188611 1.0223609 -0.016332913 -0.052307896
0.029498903 -0.007602835 -0.034122046 -0.052179784 0.0045384043 0.14459576 -0.033112664 -0.0019819662
-0.051575486 0.046436578 -0.7428042 -0.1800158 0.051535893 0.084845416 0.50206375 -1.0312369
-0.086651154 -0.38558865 -0.07373299 -0.1067085 -0.03436205 0.037477408 0.18924858 0.039490897
0.1429392 -0.25414816 0.06253113 -0.7262146 -0.032479394 -0.45577917 0.02470948 0.009624329
-0.16063495 -0.016995681 0.049348693 -0.12278112 -0.051019523 0.08719394 0.31279457 -0.06138502
-0.055002116 -0.28197187 -0.036299236 0.029473875 0.097914286 -0.08991803 0.14529142 0.0022487105
0.08357831 0.65905434 -0.28619847 0.016876433 -0.13633619 0.089034624 0.031574614 0.031559728
0.04297806 -0.0035445604 0.16055062 -0.058054283 0.36087713 0.21010518 -0.56544834 -0.46827495
0.014600842 -0.09619598 0.013454142 0.033996876 0.027601346 0.008122189 0.09393019 0.15004277
0.19957443 -0.008129232 -0.1986652 0.00934276 -1.2287705 0.08053572 0.42158422 0.16192037
0.8364324 -0.5891443 0.12735075 0.07746072 -0.06025673 -0.2927128 -0.20567057 -0.07017553
-0.17102991 -0.03313203 -0.12781447 0.013940831 0.031919822 0.3976936 0.17033891 -0.30556569
0.45492673 0.11873659 0.12535107 -0.0020872434 0.11519555 0.16119486 -0.1075356 0.07703153
-0.06692555 -0.07354397 0.03309132 0.0466807 -0.05874519 0.023831826 0.05656937 -0.14695829
0.04952838 -0.09409757 -0.010585322 0.5661228 -0.450028 0.0661958 -0.11112677 -0.0010099566
0.040256117 0.008161737 0.09766574 -0.023862513 0.023021301 0.017465755 -0.43834472 0.11951878
-0.14850226 0.03437631 0.011689948 -0.008983652 0.0071509904 -0.05731135 -0.03951265 -0.027342664
-0.075640194 0.16342373 -0.089147426 -0.016460612 -0.15317722 0.02489718 1.6054287 0.2661789
-0.08934158 -0.087272316 -0.090546384 -0.23600025 0.5420147 0.08694608 0.012021575 -0.08342783
0.28290433 -0.13078122 -0.05414821 0.03419969 -0.096451454 0.07099366 -0.08662649 0.4656191
0.71835357 0.0075478973 -0.54970324 -0.016541587 -0.03673671 -0.034942143 -0.10656939 -0.05740706

fcs1.bias f4 [256]
00000000: 6c62 b4bd b26c 0ebe e6c4 1d3d 191b cbbe
00000010: fe75 c2bd 2a10 483d 70e3 aebe 4789 9dbd
00000020: d354 c4bd 1377 b0be 5b1d fbbe caac af3d
00000030: bb06 89be 5949 a0be 1be1 35be c583 a23d
00000040: 839e c0bd ce68 e9be 1085 b3be 71f4 9ebe
00000050: 3243 943d 3717 babe cee7 48be dfdb 7f3d
00000060: f375 5abe d040 83be 1a18 66bd 9c7d a9bd
00000070: 0d3e 88be b7e8 73be 7ee4 9ebe 3317 a7be
00000080: 8ade ddbd d900 adbe ed6f 4abe 30cf c3be
00000090: 28b0 97be 048f 85be b632 9bbc fb7b d0bd
000000a0: 57cb e1be 6a45 7abe 8d28 4cbd e4c5 cf3c
000000b0: 8746 093e 4a18 66be 2082 ccbd 2d65 aabe
000000c0: ec54 61bd 05bd 64bd 7b56 12be 86d5 6bbe
000000d0: 4b7f c7be f9b0 8abe 594f dbbd dd84 45be
000000e0: 6b49 58be 14e9 0fbe 14c9 e6be 5f46 4ebe
000000f0: f865 abbe f68e 82be 2b7b 8f3d 8174 cabe
00000100: 542a 9dbe 86f2 8dbe d8b2 07be 0aad 7ebb
00000110: e9d4 01be 285a abbe e101 ccbd 295b 32be
00000120: f7a8 b9be 250c 963d 261b 9abe b14e 0fbe
00000130: 6965 b3be 6331 35bc 5460 79be d6f2 9abe
00000140: b701 2b3e 849b 71be bf74 66be 06eb 97be
00000150: 5ecd 78be c745 9dbe 2baf 8abe 3a93 6bbe
00000160: b7b5 41be aa18 35be 52a8 6fbd eb9e 453e
00000170: 3c3f 84be e5b0 12be 339a b43d 7a9e 32be
00000180: 61ce 9fbe d19f fcbe 07b3 a5be 5d26 0c3d
00000190: cce8 f23c cee3 8bbe 2719 f9bd 2390 1bbe
000001a0: a4cc 79be 8e91 0bbe 0cd4 94be d8a0 1dbd
000001b0: d816 8ebe a090 c83c 4d2e 413e 975c f43b
000001c0: 9964 98be 6b04 f3be f931 15bd 0802 a6be
000001d0: c92d d6be 93ce 24be f76b 09be 248d fbbd
000001e0: 9e25 56be 0100 0a3e 6c39 0cbe 88fe 063d
000001f0: 162a 1a3e 25b9 44be b3c5 82be 809c 92be
00000200: 8bfc dcbe 7c81 c3be 12a3 afbe 1500 a0be
00000210: bf68 98bc 7e94 21bc d358 a0be 33a4 ddbe
00000220: 8167 88bd a195 84be b645 7dbe 7bed 83be
00000230: 7c15 c8bc d947 97bd e390 d7bd c129 2fbe
00000240: 94a0 28be ac91 09bf 6772 c6bd dc69 a1bd
00000250: 57aa a0be ae61 9dbe fb08 d8be 6422 1fbd
00000260: f771 4abe a16a 7dbe b20a 3dbe eccb 5bbe
00000270: 48ed 6dbe fc48 2bbd 45b8 bdbd e1d7 85be
00000280: c066 68be 408f b7be 1824 2b3e d5e2 083e
00000290: 1f04 fabd fbc3 a6be d1a9 febd 7de6 b1be
000002a0: 0bd9 e3be 8da0 09bf 6312 58bd 45f9 943d
000002b0: 0e3f 4dbe 8088 a9bd d524 13be 4401 46bd
000002c0: 21e7 1bbf aa31 57be e8e7 3bbe 8191 37be
000002d0: aad3 29be d52d b5be b495 c9bd f60e 9fbe
000002e0: d5e2 0fbe 24b1 173d 67c9 a1be e5fd 21be
000002f0: 271f 5abe 6a10 41be ced1 acbe 2e75 72bd
00000300: b297 84bd 109e 17be 5e7b 12be dee7 d7be
00000310: bcd7 c93c 4a04 4f3e dec3 debe b9cf 63be
00000320: 39ef 0c3e c35e 17be 31c4 c2be dd43 82be
00000330: 7039 febe d4bc 293b 81f6 15bf 65e5 c2be
00000340: e7c8 b8bd c10e 0cbd fad0 4bbd 7071 d23d
00000350: 1afc c4be 2300 abbe b76b 62be 68f0 cbbe
00000360: 46e3 9abd 53ef 03bf 55f4 cbbd 1c25 a1bd
00000370: bf2b d4be f8cb 0dbf e7f2 10be 4b4b 91be
00000380: 453c 5fbe 89b7 cabe 6adb afbe b919 91be
00000390: a0b4 80be 45ec 67be 785e 49be f7e3 55be
000003a0: b58b 9cbe 793c 3a3d 5d44 9dbe c472 c3be
000003b0: 19c2 47be 64c3 a7bd d702 ddbe af31 09be
000003c0: 694e b6be a702 83be 0c63 dcbd 75af 91be
000003d0: 564f c8bd 9332 22be 1122 19be 29d8 243c
000003e0: 7b7b a1be 9166 173e 96ce 5fbe fd4a 98be
000003f0: 7edb a8be 4f34 49be 5c3f 50be f0bc 80be
-0.08807835 -0.13908651 0.038517855 -0.3966911 -0.094951615 0.04884354 -0.34157896 -0.07692199
-0.095864914 -0.34465846 -0.49045834 0.08577879 -0.26762947 -0.3130596 -0.17761652 0.07935289
-0.09405234 -0.45587772 -0.35062456 -0.3104587 0.07239379 -0.36345837 -0.19619676 0.062465545
-0.21334057 -0.25635386 -0.05617533 -0.08275911 -0.2660984 -0.23819242 -0.310337 -0.32634887
-0.108334616 -0.3378971 -0.19769259 -0.3824401 -0.29626584 -0.26085675 -0.01894508 -0.101798974
-0.44100448 -0.24440542 -0.04984336 0.025362916 0.1340581 -0.22470203 -0.09985757 -0.33280316
-0.05501263 -0.055844326 -0.14290802 -0.23030671 -0.38964304 -0.27088144 -0.10708494 -0.19288965
-0.21121757 -0.14053756 -0.45075285 -0.20144032 -0.33476233 -0.25499696 0.07005914 -0.3954201
-0.30696356 -0.27724093 -0.13251817 -0.0038860464 -0.12678875 -0.3346722 -0.09961296 -0.17417587
-0.36261722 0.07326535 -0.30098838 -0.13994862 -0.35038307 -0.011059138 -0.24353153 -0.30263394
0.16699873 -0.23594481 -0.22505473 -0.29671496 -0.24297091 -0.30717298 -0.27086768 -0.23005381
-0.18916975 -0.1768519 -0.058510132 0.19298904 -0.25829494 -0.14325292 0.08818474 -0.17443267
-0.31212142 -0.4934068 -0.3236315 0.034216274 0.029652022 -0.2732224 -0.121630006 -0.15191703
-0.2439447 -0.13629743 -0.2906803 -0.03848347 -0.27751803 0.024483025 0.18865319 0.0074573266
-0.2976425 -0.47464308 -0.03642461 -0.32423425 -0.41831806 -0.16094427 -0.13420092 -0.1228278
-0.20912787 0.13476564 -0.1369378 0.032957584 0.15055117 -0.19211252 -0.25541458 -0.28635025
-0.43161425 -0.38184726 -0.343041 -0.31250063 -0.018604634 -0.009862063 -0.31317768 -0.43289337
-0.06660367 -0.25895408 -0.24733624 -0.2576712 -0.024424307 -0.07386751 -0.10525682 -0.17105772
-0.16467506 -0.537379 -0.09689789 -0.07881519 -0.3137996 -0.30738586 -0.42194352 -0.038851157
-0.19770037 -0.24747707 -0.18461111 -0.21464509 -0.23235047 -0.04181765 -0.09263662 -0.26141265
-0.22695446 -0.3585148 0.16712987 0.1336778 -0.12207817 -0.32571396 -0.12434734 -0.3474616
-0.44501528 -0.53760606 -0.05275191 0.07274107 -0.20043585 -0.082779884 -0.14369519 -0.04834105
-0.6089955 -0.21015039 -0.18350184 -0.17926599 -0.1658465 -0.3538653 -0.09843007 -0.31066102
-0.14051373 0.03703417 -0.3159897 -0.1581951 -0.21300946 -0.18853918 -0.33753818 -0.059193783
-0.06474246 -0.1480639 -0.14304873 -0.42169088 0.024639003 0.2021648 -0.4350881 -0.22247209
0.13763131 -0.14782242 -0.38040307 -0.254424 -0.49653196 0.0025899904 -0.5857926 -0.3806564
-0.09022694 -0.034193758 -0.049759842 0.10275543 -0.38473588 -0.33398542 -0.22111402 -0.39831853
-0.0756288 -0.51537055 -0.09958712 -0.07868406 -0.41439626 -0.55389357 -0.1415516 -0.28377756
-0.21800335 -0.3959315 -0.34347087 -0.28339937 -0.25137806 -0.22648723 -0.19664943 -0.20887743
-0.30575338 0.045467827 -0.3071622 -0.38173497 -0.19507636 -0.08191565 -0.4316623 -0.13397859
-0.35606697 -0.2558796 -0.10761079 -0.28454176 -0.09780757 -0.15839605 -0.14954402 0.010061302
-0.3153952 0.1478522 -0.2185615 -0.29744712 -0.3297996 -0.1964886 -0.2033667 -0.25144148

bn1.weight f4 [256]
00000000: 66a6 0f3f 01e0 fe3e 6434 263f f403 cb3e
00000010: 163d 263f 226d 903e f559 0d3f dd41 0a3f
00000020: b0f6 4a3f 171d d53e 6be9 c33e 80b2 9b3e
00000030: 0647 fe3e 50c8 003f 450a b23e 7516 ce3e
00000040: 4a4b 223f c359 aa3e 9f81 bd3e df8b d83e
00000050: 4985 0b3f 7cd4 e13e 4796 213f 3a63 033f
00000060: d212 d33e baa0 003f 9ef2 e63e 6489 9d3f
00000070: fcc9 003f 65dc 0b3f 619b 143f 8c67 723f
00000080: 6b25 993e 8c12 393f 6c9f 7e3f 61d3 893e
00000090: c70b b53e 8551 573f 7199 ac3e d41e cc3e
000000a0: 1452 313f 6bfd bb3e 1080 b53e ccc2 da3e
000000b0: 7e0b 193f 9854 c13e 7420 9e3e 55f5 c83e
000000c0: 796c 273f 25d3 fd3e 67a0 013f a91b bf3e
000000d0: b89a fe3e b157 263e 168f 3a3f 67af c43f
000000e0: 9bf3 c03e 7ff7 c33e 56a2 f33e 813b 133f
000000f0: 4e30 bf3e a516 f53d 1db2 693e 0d86 f93e
00000100: a532 113f 7b96 d93e 779d e53e 0cfa 203f
00000110: 2759 053f d1dd 333f c3e4 9a3e 3b4b 373f
00000120: 69eb 323f b14c e13e bd67 c93e cbd3 1d3f
00000130: 55d5 263f b726 193f 2764 1a3f 2d02 de3e
00000140: 34bd b23e 7b40 f53e 830f de3e 9062 1d3e
00000150: 400b 953e 340d e33e 3814 e73e 28b9 ef3e
00000160: 3002 b73e 3876 033f 2f85 c63e eeca ec3e
00000170: f126 ae3e c06f 063f f5c8 bd3d 0011 863e
00000180: dc1c a83e acfe fe3e 3ca7 eb3e 0657 263e
00000190: 4b98 1d3f d03f 813e 0320 123f 4750 ef3e
000001a0: fa9b a43e f075 a13e 173f 323f 649a ac3e
000001b0: bea1 fb3e 5e8a a73e 6480 1a3f 225b a23e
000001c0: ab64 1d3f 8e43 d03e a449 803e 06eb a13e
000001d0: a55b 683e 8e7c 273f 11e2 f73e 6bc6 093f
000001e0: d794 113f 7cda d73e cb9d 113f a2e1 2a3f
000001f0: f91f 003f 16e8 f03e 68a8 ba3e 431b d63e
00000200: 324a 283f 24e6 e83e fd6c d03e 1aa9 fb3e
00000210: 1b1e e33e a66f e73e ec27 9d3e 0303 f23e
00000220: c40d 283f 6a5e 933f 5daf f23e cf7c da3e
00000230: 8124 b93e 95d7 b23e 27ea 793f 4677 f03e
00000240: 90a0 fe3e bdf0 113f 9bcb f83e 99d0 f83e
00000250: e98e 193f 7472 993e 4d45 fa3e cb79 823f
00000260: a8a3 d43e 7fed 133f c3a9 b73e fec3 c63e
00000270: aafe 2b3f 5224 0f3f ee20 bb3e 856e c83e
00000280: 3a8f 0e3f 1525 f23e cf2d 523f a3cc ed3e
00000290: b70a c03e c6f6 953e 1666 ed3e 5918 bb3e
000002a0: 77c8 083f a617 b53e 18a2 7b3e 0780 833e
000002b0: 1607 003f eae9 2d3f deac b33e e852 d83e
000002c0: 4e3f a93e a129 a93e 892f 2b3f 3954 843e
000002d0: bd59 d03e dec0 003f 49db 43be af48 cf3e
000002e0: 6a1b f03e 36db ec3e 3a66 2f3f 6526 9b3e
000002f0: 41cf a63e 0a8c d33e 1ce2 083f 320e 913e
00000300: 80cd c13e b93c e53e fde6 c13e 4ccf f43e
00000310: 85f7 0b3f 70b0 c33e 8893 903e 16ef c63e
00000320: c4c8 093f 8ff4 e03e 131c 223f 70aa 9b3e
00000330: 8236 f53e 6979 063f 7cdb d13e 66d2 db3e
00000340: 9fb2 de3e 804d 143f 5d8b de3e 8333 7b3f
00000350: fae4 2f3f edd9 db3e ada2 ed3e d8eb f23e
00000360: 26f3 093f c74c 863e f764 d33e 396f b73e
00000370: b54b 733e facf 463f 9939 583e 7522 263f
00000380: 6eb5 f83e 88e4 e73e 1fbb db3e 3471 0f3f
00000390: ef3f d03e bb18 fa3e ec95 0f3f 363c 123f
000003a0: be17 f43e da70 943e 0beb d83e 5251 f43e
000003b0: 76ed 173f e029 bc3e c923 a23e db9b 0d3f
000003c0: 81a2 c33e 3a94 d13e 0eef ea3e c678 483e
000003d0: 3cc6 923e 2175 063f 6bd8 003f 5c07 a83e
000003e0: 4c92 003f 091f c63e 78ff df3e 2cfe 493f
000003f0: d7d0 503e e34a ce3e f69f 233e a575 1a3f
0.5611328 0.49780276 0.6492369 0.39651453 0.6493696 0.28208262 0.5521539 0.5400675
0.79282665 0.41623756 0.3826402 0.30409622 0.49663562 0.5030565 0.3477346 0.40251508
0.6339613 0.33271608 0.37012956 0.42294213 0.5450025 0.44107425 0.6311993 0.5132328
0.41225296 0.5024525 0.45106977 1.2307553 0.50308204 0.5463317 0.5804959 0.9468925
0.2991136 0.72293925 0.9946201 0.26919082 0.35360548 0.84108764 0.33710817 0.3986727
0.69265866 0.3671678 0.35449266 0.42726743 0.5978316 0.37759852 0.30884135 0.39249673
0.6539989 0.49575153 0.5063538 0.3732579 0.49727416 0.16244389 0.7287458 1.5366029
0.37685856 0.38274762 0.4758479 0.5751267 0.3734154 0.1196721 0.22821851 0.48735085
0.567179 0.4249762 0.448467 0.6288154 0.5208916 0.7026034 0.30252656 0.7159917
0.6989046 0.44003823 0.3933696 0.61651295 0.6516927 0.598247 0.6030907 0.43361035
0.34909976 0.47900757 0.4337121 0.1536963 0.29110146 0.4434601 0.45132613 0.4682095
0.35743856 0.5135226 0.38773486 0.46248573 0.34014085 0.52514267 0.09266845 0.26184845
0.32834518 0.49803674 0.46026027 0.16244134 0.61560506 0.25243998 0.57080096 0.46740934
0.3215025 0.31535292 0.6962752 0.3371154 0.49146837 0.32722753 0.6035216 0.31710154
0.6148173 0.4067654 0.25056183 0.3162462 0.2269121 0.6542443 0.48414662 0.53818387
0.56867737 0.42158878 0.568814 0.6675054 0.50048786 0.47052068 0.3645661 0.41817674
0.65738213 0.45488083 0.4070815 0.49152452 0.44358906 0.45202368 0.3069452 0.47267923
0.65646005 1.1513188 0.47399417 0.42673346 0.36160663 0.349301 0.97622913 0.46965998
0.49731874 0.5700796 0.4859284 0.48596647 0.5998369 0.29970133 0.48880997 1.0193418
0.4153111 0.57784265 0.35871705 0.38821405 0.6718546 0.55914795 0.3654856 0.3914682
0.55687296 0.47293916 0.8210115 0.46445188 0.37508175 0.29289836 0.46366948 0.36542013
0.53430885 0.35369605 0.24573553 0.25683615 0.5001081 0.6793505 0.35092825 0.42250752
0.3305611 0.33039573 0.6686941 0.25845507 0.40693465 0.5029429 -0.1912662 0.4048514
0.46895915 0.46260995 0.6851536 0.3030273 0.32579997 0.4131778 0.53470016 0.28331143
0.37852097 0.4477289 0.37871543 0.47814405 0.5467456 0.3822055 0.28237557 0.38854283
0.5382197 0.43936583 0.6332409 0.3040347 0.4789315 0.5252901 0.40987766 0.4293396
0.43495652 0.57930756 0.434657 0.98125476 0.68708766 0.42939702 0.46413174 0.4744556
0.5388664 0.2623045 0.41287968 0.35827044 0.23759349 0.776611 0.21115722 0.6489633
0.4857592 0.45291543 0.429162 0.5603211 0.40673777 0.48846993 0.5608814 0.57123125
0.47674364 0.2899235 0.42366824 0.47718292 0.5934671 0.36750698 0.31667927 0.5531594
0.38209918 0.409334 0.4588551 0.19577321 0.28666866 0.52522475 0.5033023 0.32818115
0.5022323 0.38695553 0.43749595 0.7890346 0.20392166 0.4029151 0.15978989 0.6033576

bn1.bias f4 [256]
00000000: 8363 b03c 5abd 8f3c f29f b73e 77af 0c3e
00000010: 8140 bf3e 4f61 52bd b6cd 683e aea0 2e3e
00000020: 69e3 763e 89e3 e83d ec36 2f3e 7d5d 3d3d
00000030: effe b9bb cdd5 8f3e 25d8 f73d 35e7 513d
00000040: 6f5c 313e f6c4 8d3d 7deb 903d f72f bc3d
00000050: 8834 fa3d b2cf 4f3d 8a46 3d3e 2acc 273e
00000060: a381 493e a0bb 36bd 8f4e d53c 840e cb3d
00000070: e009 bd3d 65c8 4b3e 1b44 b63d 09a2 473e
00000080: 5921 403d cb9c 873e 0a74 163e f10a 823d
00000090: 8fd7 d43e 4f83 d13d 0acf 003e 1f95 4f3d
000000a0: 90a6 773e 0de5 3cbd b10d 383c 098e 3dbe
000000b0: a2b0 21bd f592 413e b4b2 6f3d bc44 123e
000000c0: 0c8a b83d 5cfe e33d d679 8b3e 9303 05bd
000000d0: 2ea7 563d 251e 833e 99e5 3a3e e7a1 c93d
000000e0: 553d a33e 4d7a 0dbe d773 0c3e 3313 1c3e
000000f0: 728f b83b 9dcd 96bd bad5 fc3b 4ad8 923e
00000100: 9906 14bc c14e 523e 36ad 2c3e ec7c ba3d
00000110: f17d 843e 5977 0e3e 3bfe 4f3d 1c41 7d3e
00000120: f409 9c3e 1d08 a63d e496 4d3b c14e 1f3e
00000130: 4b88 5b3e 4a4d b0bd fb90 a93d 67c2 533e
00000140: 2baf f7bd 5583 ef3d 00e0 113e 216f 0bbe
00000150: 9012 43be 3b76 4b3d 5c69 f13d 90bd 9fbd
00000160: 76ec b73d d591 123d cc13 393d 751e 94bd
00000170: 04c9 d13d 5aa0 893d cbb2 06bf c6c3 76be
00000180: a006 cb3e cebd 343e 7f0c 403e 7269 babe
00000190: 63c5 093e 6456 22be f84f 313e 4d9b 1a3e
000001a0: ef13 da3d b8e8 853d 8416 7b3e c5bd 0c3d
000001b0: e68b 3f3c f150 303b 00c5 c5bb e486 20be
000001c0: c0f1 553e 1269 d43d eeb3 153e 28b7 ca3b
000001d0: 7af1 70bd 6a75 9f3e 9be6 7b3e ffe2 813e
000001e0: c111 8e3e f9cb b13d a398 893d 3854 5a3e
000001f0: 0d65 c93d 0941 623d f9b6 e9bb e650 263e
00000200: 5674 3a3e a988 e63c 16a3 1e3e ca03 043c
00000210: e067 1b3d 2d10 943d 2d2c 873e ba01 363e
00000220: 7d88 de3e 0225 2e3e 70fe 02bd b4cc e83d
00000230: 1276 a03d b817 fcbb 54ba 283e f71a 3b3e
00000240: 3704 a53d 144c b83e d1f8 053e 2058 e73d
00000250: 2262 0e3e 30eb dd3d a5b4 313c 749f d43c
00000260: e045 373b 45ce e33d 0590 e33d 8bac a0bb
00000270: 9a88 e13e 6a66 873d 3796 0f3e 9636 0d3e
00000280: 91af 3a3e 229f 593a 13c8 dc3d 9b88 123e
00000290: 934c 5bbe fc4c bd3d b177 a53d bed3 f63d
000002a0: 7c9e 0a3e a6df 40bd 2030 3fbe fd37 dc3e
000002b0: 845e ae3d 6956 143e 8d1b ee3a 434f a23c
000002c0: 2f51 0e3e d5c2 b13c f1a6 023e eacf 813c
000002d0: 6ef4 a23c 4b40 4bbd 9355 c2be c90b 273e
000002e0: 80a3 183e d0e3 703d 9090 853e 5e5f 9f3e
000002f0: d0a1 b23d f884 e93d 4c44 60bd b231 063e
00000300: 8a22 863d fb03 9b3d 3eb1 a5bb db5e 2e3e
00000310: aab0 293e c50a a73c 799d 583d 5139 e03d
00000320: 0345 b03d 71f9 2c3e ab3d 5d3e c057 393d
00000330: 7e62 fc3c 3100 e53d d524 a13e 8cda 5d3e
00000340: 35e5 9c3d 5b27 873d b67a d53d 82b2 1a3e
00000350: c88f cc3d dc62 e33d aab6 e3bc 2a58 d23c
00000360: 321f 983c 7ec8 81bd d832 543e 8015 a33c
00000370: ddf7 10bf 3c18 a63e bace cc3d eccd 6e3e
00000380: bf93 713e 8d5e 713e 0909 fb3d a25b 0fbc
00000390: 91a2 0f3e 3954 8a3d 6c28 013e 3aca 51bc
000003a0: 2766 683e fbff 0fbe 43c5 2f3c 4d47 1c3e
000003b0: f6aa 233e e431 9a3d d0b2 aabc 90be 223e
000003c0: d222 de3d 61cb 0b3e b933 743e 7778 50be
000003d0: 83cc d53d bb04 553e be5d 123d 01e1 c03d
000003e0: 1d24 083e a385 643d 9c6f 573e ef77 dd3d
000003f0: a539 9cbd 639a 0f3e 10e9 e03e 1047 8c3d
0.021531826 0.017546345 0.35864216 0.1373881 0.373539 -0.051362332 0.22734722 0.17053482
0.24110188 0.11371524 0.17110795 0.046231735 -0.0056761424 0.28092805 0.12101773 0.051245887
0.17320417 0.06922333 0.07076166 0.09188836 0.12217051 0.050735183 0.1848394 0.16386476
0.19678359 -0.044612527 0.026038436 0.09914878 0.09230399 0.19900663 0.08899709 0.19495405
0.046906803 0.2648681 0.14692703 0.06349743 0.41570708 0.10230123 0.12578979 0.050679322
0.24184632 -0.046116877 0.011233733 -0.18511213 -0.03947509 0.18903716 0.058520034 0.14284033
0.09010705 0.111324996 0.2724139 -0.03247411 0.05240553 0.25608936 0.18251647 0.098453335
0.3188273 -0.13816185 0.13716064 0.15241699 0.0056323344 -0.07363436 0.007715908 0.2868064
-0.009034776 0.20537855 0.1686295 0.09105858 0.25877336 0.13912715 0.050779562 0.24731869
0.30476344 0.08107016 0.0031370455 0.15557386 0.2143871 -0.08608492 0.08279606 0.20679627
-0.120939575 0.116949715 0.14245605 -0.13616611 -0.1905005 0.0496733 0.11787674 -0.07799828
0.08980648 0.035783608 0.045184895 -0.07232372 0.10243419 0.06720038 -0.52616566 -0.24098119
0.39653492 0.1765053 0.18754767 -0.36408573 0.13454203 -0.15853268 0.17315662 0.15098305
0.10648333 0.06538528 0.24520308 0.034360666 0.011691069 0.0026903714 -0.006035447 -0.15676457
0.20893002 0.10371603 0.14619419 0.0061863847 -0.05882404 0.31144267 0.24599688 0.25368497
0.2774792 0.08681483 0.06718566 0.2132119 0.09833727 0.055237804 -0.0071324077 0.16241798
0.18208441 0.028141337 0.154919 0.008057544 0.03794086 0.07229648 0.2640089 0.17774096
0.43463507 0.17006305 -0.03198093 0.11367169 0.0783502 -0.007693257 0.16477329 0.18272005
0.080574445 0.35995543 0.13083197 0.112961054 0.13904622 0.10835874 0.010846292 0.02595494
0.0027965233 0.11123327 0.11111454 -0.004903381 0.4404953 0.06611331 0.14022146 0.13790354
0.18231036 0.00083016057 0.10780349 0.14309923 -0.2141593 0.09243199 0.0807947 0.12052105
0.1353702 -0.047088288 -0.18670702 0.43011466 0.08514121 0.14486088 0.001816617 0.019813186
0.13898157 0.021699348 0.12758996 0.015846211 0.019891944 -0.04962186 -0.37955913 0.1631309
0.1490612 0.05881101 0.26086855 0.31127447 0.087222695 0.11402315 -0.054752633 0.13104895
0.065495566 0.075691186 -0.0050565293 0.17028372 0.16571298 0.020390878 0.052884553 0.10948432
0.08606913 0.1689203 0.21605556 0.0452497 0.030808683 0.11181677 0.31473413 0.216654
0.07660905 0.06599303 0.10423796 0.15107158 0.099883616 0.1110284 -0.027797062 0.025676806
0.018569563 -0.06337069 0.2072252 0.019907713 -0.5662821 0.32440364 0.100003675 0.2332074
0.23591517 0.23571225 0.12257583 -0.008749874 0.14026858 0.067543454 0.12613076 -0.012804562
0.22695218 -0.14062493 0.010728183 0.15261574 0.15983185 0.07529047 -0.020837218 0.15893006
0.10846485 0.13651802 0.23847856 -0.20358454 0.10439398 0.20802586 0.03573393 0.09417916
0.13295026 0.05579151 0.2103867 0.10813891 -0.07628182 0.14023738 0.43927813 0.068494916

bn1.running_mean f4 [256]
00000000: 4157 503e b146 1d3e a1b4 ce3e a9f6 b03e
00000010: 2443 ac3e 61a7 773e 3033 9f3e b453 ab3e
00000020: 30b2 9f3e b174 863e 39d9 f33d 1165 623d
00000030: 2a2f d73e cd9b df3d 97d2 be3e a93c c63e
00000040: e068 5f3e f743 8a3d 72db f63d eca2 673e
00000050: 1453 173e 6680 0b3e 4c81 033f 5584 123e
00000060: 2291 243e e01d 173e 0411 0f3e 18df d23e
00000070: 713b 003f aed5 4b3e eb86 9b3e e365 183e
00000080: a5bc eb3d 0d4f 573e 6163 b53e bdcf b93d
00000090: fbbe 6c3f 6845 933e 5bce 6f3e ab74 a93d
000000a0: 5e7c eb3d 5d60 4f3e d22d 693e 9abd 573e
000000b0: abeb da3e b137 9e3e 9f14 323e fa75 a13d
000000c0: 81fc 4c3e a90c 2c3e 0ef6 cb3e 06b0 563e
000000d0: 9da7 f83d 978a 963d 8272 a13e c54a 913e
000000e0: a246 143e 50c6 103e d886 ab3d 062c 5e3e
000000f0: 2e9c f63d c114 ed3d a9c9 6f3e 3b75 f73e
00000100: 0a0f 2e3e f011 633e 06c4 273f 79b6 463e
00000110: 02f4 983e 3200 8e3e 3e4f 033f 426e 073f
00000120: 3df8 cd3e c4a1 793e c6f5 f03d f454 063e
00000130: d1af 6c3e 41cc 4d3e df7c c63e 0207 773e
00000140: 2e56 fc3e 77ba ea3d 7dee 3e3e 2f73 713d
00000150: eb2f f33d 0edb b03e 019d ba3d 2151 c53e
00000160: 82ef 283e 3d6d 243e c4f6 ec3d 3a91 253f
00000170: b250 7b3d 48cb 723e 96f7 043e b2d7 673e
00000180: 8350 413f cad6 0d3e d4d7 cc3e a8ac 563e
00000190: 89dc 613e e58e b63e bd94 d63e 7f0f 543e
000001a0: 2ee1 153e 3e68 853d 1fe6 523e a93b a53d
000001b0: 2579 bd3d 43d1 c53e ae2f bd3e 468e f33d
000001c0: 9b98 143e 7755 db3d f6ab 043f ddd7 b53d
000001d0: 1ee4 a23e 0b7a 833e 8119 883e 25cf ed3e
000001e0: 4e24 993e 77f6 053f 5faa 233e 8fa7 f33d
000001f0: 499b 8f3e ba77 363e ea8c 273e df82 ee3e
00000200: 199e e13d 9982 ba3d e190 353e 2cb8 953e
00000210: 2af1 523f b737 703e d98c 523e 0230 033e
00000220: 986a a93e 1a64 dc3e ae49 3f3e 388f 5b3e
00000230: 607e 243e 5abe 5d3e 6770 b63e c9e3 9e3e
00000240: 2a68 2f3e 5bb2 623e 9958 813e f23a 603e
00000250: 3d2a 473e 1202 aa3d f18c b73e a1bc e93e
00000260: 4456 053f c10d 8e3e 7db3 353e bc98 cd3d
00000270: 4555 b83e 4d51 2d3e f203 a13e 1d2e 173e
00000280: 735b 6b3e e31b 603e e4a3 493f 1905 ec3e
00000290: 4169 bf3e 815d ee3d 14e1 f73e 9590 3c3e
000002a0: 6ec2 1c3e 3d45 aa3d d791 8c3e e14e 6c3f
000002b0: 017d 3e3e 515c 6b3e 5fb5 c93d de78 053e
000002c0: ae06 193e ac63 3d3e e7cf 2d3e 206e eb3d
000002d0: 8bf5 263e d19f 7a3e 682b 703e 4e42 b93e
000002e0: 66d8 1b3f 49cc 373e 774c 723e 0b14 e83e
000002f0: 0dc6 903e 2324 e33d 0e30 483e 9c8c 3e3e
00000300: 8dc8 163e 7d97 c03d 0c80 4e3e e78c aa3d
00000310: adad 403e 6043 0f3e e7ee 503d 600f 0b3e
00000320: 06c0 1b3e 93e7 823e ad96 463e 766c b33e
00000330: 1959 c13d 0fa5 703e b8df ab3e a642 243e
00000340: 6fe4 113f 3225 2c3f bb62 483e d53c 183f
00000350: 937c 3f3e a6cf b03e 4cdc d53d a6b7 bd3e
00000360: df07 df3d 563e 933e 3b21 563e 4507 623e
00000370: 83ec 663e 0cba ed3d 48f2 513e 9c92 e83e
00000380: b065 e53e 61ec d03e e80c 1f3e ea68 b43e
00000390: 843e 983e 55d9 be3e 092e 4a3e 316a 9b3e
000003a0: 62f6 6b3e 45b6 4c3e 960c 1c3e 111e 3b3e
000003b0: 58da 803e 4345 113f 64f2 d43e ab26 523e
000003c0: 4c94 ea3d f6af 813e 1376 ea3e dfbd 5e3e
000003d0: c941 0c3e 4ffc d93e 1590 813e b52d 913d
000003e0: 2f65 e03d 8954 583f ff67 8b3e 2a33 603e
000003f0: 0e04 b63d d14e 783e 8d48 713e d617 2f3e
0.20345785 0.15358998 0.40372184 0.34563187 0.33644974 0.24184944 0.3109374 0.33462298
0.31190634 0.26260903 0.11906666 0.055272166 0.4202817 0.109183885 0.37270042 0.38718155
0.2181735 0.067512445 0.120535746 0.22620744 0.14777786 0.13623199 0.51369166 0.14308293
0.16070989 0.1475749 0.13971335 0.41185832 0.500907 0.19905731 0.30376372 0.14882617
0.115105905 0.21026249 0.35427383 0.09072826 0.92478913 0.2876389 0.23418562 0.08274206
0.114983305 0.20251603 0.22771385 0.21068421 0.42757925 0.30901864 0.17390679 0.0788383
0.20018198 0.16801704 0.39836162 0.20965585 0.12141345 0.07350653 0.31532675 0.28377357
0.1448007 0.1413815 0.08375329 0.21696481 0.12041508 0.11576224 0.23416771 0.48331627
0.16997924 0.22174811 0.65533483 0.19405545 0.29873663 0.27734524 0.5129279 0.52902615
0.40228453 0.24378115 0.117656276 0.13118345 0.23113944 0.20097448 0.38767144 0.24123767
0.492845 0.114613466 0.18645664 0.05894774 0.11874374 0.34542125 0.09111977 0.3853846
0.16497615 0.16057296 0.11570504 0.64674723 0.061356254 0.23710358 0.12985072 0.22640875
0.75513476 0.13851467 0.40008414 0.209643 0.22056784 0.35655895 0.41910353 0.20709036
0.1463668 0.06514023 0.20595597 0.0806802 0.09251622 0.38636217 0.3695044 0.11892371
0.1451134 0.107096605 0.5182489 0.08879063 0.31814665 0.2567905 0.26581958 0.464471
0.2991051 0.523292 0.1598296 0.11897194 0.2804816 0.1781911 0.16362348 0.46584222
0.11016483 0.09106941 0.17731048 0.29242074 0.8239924 0.23458754 0.20561542 0.12811282
0.33089137 0.4304512 0.1868045 0.21441352 0.16063833 0.21654645 0.3563263 0.3103316
0.17129579 0.2213835 0.25262907 0.21897486 0.19449706 0.08301176 0.35849717 0.45651725
0.52084756 0.27744868 0.1774425 0.100388974 0.36002555 0.16925545 0.31448323 0.14763685
0.22984104 0.21885638 0.787657 0.4609764 0.3738499 0.11638928 0.48413908 0.18414529
0.15308544 0.083139874 0.27455017 0.9230786 0.18602373 0.22984435 0.09849047 0.13034388
0.14943954 0.18495053 0.1697384 0.11495614 0.16304605 0.24475028 0.23454058 0.361834
0.6087707 0.17949022 0.23661982 0.45327792 0.282761 0.11090877 0.19549581 0.18608326
0.14724942 0.09403894 0.20166034 0.08327656 0.18816252 0.13990545 0.051009085 0.13580084
0.1520997 0.25567302 0.19393416 0.35043687 0.09440822 0.23500465 0.3356912 0.1604105
0.56989187 0.67244256 0.19568913 0.5946782 0.18699865 0.34533423 0.10442409 0.37054175
0.10890173 0.28758496 0.20911114 0.22073086 0.2255116 0.11607751 0.20502579 0.45424354
0.44804144 0.40805343 0.15532267 0.35236293 0.29735196 0.37275186 0.19744124 0.30354455
0.23043206 0.19991405 0.15239176 0.18273188 0.25166583 0.5674631 0.4159118 0.20522563
0.11454067 0.2532956 0.45793208 0.21752118 0.1369697 0.4257531 0.25305238 0.07088796
0.10956799 0.8450399 0.2722778 0.21894518 0.08887492 0.24248816 0.23562832 0.17098936

bn1.running_var f4 [256]
00000000: 82ff 6f3e e577 0e3e 894a 8a3e 4c27 a43e
00000010: 7088 c23e 497e 5a3e a2ed a83e a113 c53e
00000020: 9dbb cd3e 4fd1 553e 8819 c13d cfd2 9f3d
00000030: f840 383f 6250 cf3d 42a7 3d3e dfc7 923e
00000040: 35c4 1d3e bf32 7b3d df90 e33d 5de3 643e
00000050: 517c 543e ac92 3b3e 4686 223f 854a f93d
00000060: 6b3c 4f3e f56c 173e 1849 db3d 0269 cc3e
00000070: 55e9 283f 8b69 003e 135c ce3e 4738 be3d
00000080: 9e51 643e eafd 743e 0c3f b63e 942b f23d
00000090: 93b7 9a3f eaf6 8f3e d278 a33e a73e 703d
000000a0: e2a3 993d 23ff 553e 0e1c 7e3e a32b 393e
000000b0: a192 743e 135e a73e 0cec 393e 4956 a13d
000000c0: 2863 383e 7e26 5b3e 9925 073f dad1 513e
000000d0: ff47 0b3e 2d54 1b3e de4e a63e 544a 7a3e
000000e0: 53fa 273e 4bce 3e3e 49fa 8a3d eb71 273e
000000f0: 76c3 c13d 42c5 773e 7efb 6e3e e5bf 233f
00000100: 3757 313e 9937 963e 9a77 e23e 1668 a43e
00000110: 0f44 773e 18e9 783e cbb2 293f 38f9 d13e
00000120: c39f a93e 268d 813e 017d fa3d 643e 3d3e
00000130: a697 543e b345 0d3e 27cf ed3e b9f8 873e
00000140: 6715 0a3f 8377 ef3d 2364 183e 0d9e d23d
00000150: b9c4 f43d 5548 ba3e 12c7 893d 1c7c 123f
00000160: caff 483e 2114 083e 98f9 f33d 670a 2b3f
00000170: 32c1 9b3d 99cc 833e c8d5 453e b23c ab3e
00000180: 7f7b 943f 9128 cc3d 2e42 b63e 13a0 a83e
00000190: 1231 4f3e 3b9b 2c3f 6111 ec3e be80 9a3e
000001a0: 5f14 563e ab08 903d 094e 483e eda1 9e3d
000001b0: 941e 7a3d 860f 8a3e a3ea b43e fde3 053e
000001c0: 5c9e 113e c702 0e3e 8771 243f b947 1a3e
000001d0: a3d2 bd3e c11a 4f3e 9a3b 773e 1790 c93e
000001e0: e99b 933e e133 363f 9440 213e cd44 e33d
000001f0: 68ec 893e 6e62 4c3e aa63 613e 4563 103f
00000200: dcf4 9a3d e284 c23d 10f9 6c3e f098 083f
00000210: 6b1b 913e 9f2e 963e ed12 893e 2505 cb3d
00000220: d3c8 963e 77fd d53e 8ce0 563e acd2 2f3e
00000230: dc02 1b3e 48f5 9c3e b7d2 ab3e a3cb ba3e
00000240: 54e7 023e 681f 743e 1869 453e 86e6 203e
00000250: 664e 443e cf38 d63d cfb3 933e cca2 e73e
00000260: beed 123f 31c9 ac3e 5713 993e ffd2 d93d
00000270: d960 913e 8f1d 503e 8b39 b03e 9ece 653e
00000280: ec51 523e c374 5b3e 878c 483f add0 fb3e
00000290: 3a80 aa3e e35a 093e a773 333f 52c9 1f3e
000002a0: d6d0 0a3e cf9a 6b3d beb3 783e 51a7 bd3f
000002b0: 0207 583e 1f22 9a3e ef6f 0e3e 49c0 043e
000002c0: 3a91 833e 50bb 4a3e 94f7 203e ad48 c23d
000002d0: 7163 3e3e 5bcc 9f3e 0e26 783e eebc cc3e
000002e0: 21fe 013f a54b 503e 3e41 493e ea85 d83e
000002f0: 6ead a03e 1858 d73d df82 383e 9526 473e
00000300: 7d37 1a3e dada dd3d 6ef6 473e 79f5 903d
00000310: 7946 193e d397 743e 6e82 353d ecb1 0f3e
00000320: c3be 203e fde2 993e 26db 373e db88 c33e
00000330: 499b 9c3d 3fb1 8d3e 9b6f 033f 4dd4 163e
00000340: 8fe2 3b3f 54fe 3f3f 9f65 813e 648a 233f
00000350: 72e8 3e3e b574 ee3e 7c5f f23d e96d fa3e
00000360: 5750 d03d 4b61 8d3e 0e14 4a3e 0a1f 803e
00000370: ba28 983e c7ac de3d eea7 a73e d53a d53e
00000380: cab6 ed3e c9d5 e03e c37f 713e 0190 9b3e
00000390: 72fa 5b3e fc3b a93e f8ce 7b3e 873d 9c3e
000003a0: f21b b93e 748a 2e3e e70c 283e 0d3a 4d3e
000003b0: 7ebf 503e 50f7 243f c122 a03e 26eb 3b3e
000003c0: 989a f73d 93db 823e 3ff0 0f3f 80c1 9b3e
000003d0: 98fd 4d3e b2a7 e33e 6321 8d3e 67cc 933d
000003e0: 856d ba3d f646 b93f 8449 ac3e cd1d 6f3e
000003f0: 0913 153e 02cd 643e dfa0 693e 2047 1d3e
0.23437312 0.13912924 0.2700999 0.3206123 0.3799472 0.21337236 0.329938 0.38491538
0.401822 0.20880626 0.09428698 0.078038804 0.71974134 0.10122754 0.18520835 0.28668115
0.15406878 0.061327692 0.11111616 0.22352357 0.20750548 0.1831767 0.63486135 0.121724166
0.20237891 0.14787658 0.10707301 0.39923865 0.65981036 0.12540261 0.40304622 0.09288078
0.2229676 0.23924986 0.35594976 0.11824718 1.2087272 0.28118068 0.31928116 0.0586535
0.07501961 0.20898108 0.2481539 0.18083052 0.2388406 0.3268896 0.18156451 0.07877786
0.18006575 0.21401402 0.52791744 0.20490208 0.13601683 0.1516883 0.32482046 0.24442416
0.16404085 0.18633382 0.06786019 0.1635205 0.09461109 0.24196342 0.23338124 0.6396468
0.17318426 0.29339293 0.44231874 0.3211066 0.24147056 0.24307668 0.6628844 0.4101045
0.331297 0.25303 0.12230874 0.18480831 0.20760974 0.1379612 0.46447107 0.26556948
0.5393891 0.11692717 0.14881949 0.10284052 0.11951584 0.3638331 0.06727423 0.57220626
0.19628826 0.13288929 0.119128406 0.6681275 0.076052085 0.25742033 0.19319832 0.33444744
1.1600188 0.09968675 0.35597366 0.32934627 0.20233563 0.6742436 0.4610701 0.30176347
0.20906208 0.07032903 0.19561018 0.07745729 0.061064318 0.26964968 0.35335264 0.13075252
0.14220566 0.13868247 0.6423573 0.15066423 0.37074766 0.2022505 0.2414383 0.39367744
0.28829888 0.7117291 0.15747291 0.11097107 0.26938176 0.19959423 0.22010675 0.56401473
0.075662345 0.09498002 0.23141885 0.53358364 0.2834123 0.29332444 0.26772252 0.099130906
0.29450092 0.4179494 0.20984095 0.17170209 0.1513781 0.30655885 0.335592 0.36483487
0.12783557 0.23840106 0.19278371 0.15712938 0.19170532 0.10460054 0.2884812 0.45241392
0.57394016 0.33747247 0.29897568 0.106359474 0.283942 0.20323776 0.34418902 0.224421
0.20539063 0.2143126 0.7833943 0.49182644 0.33300954 0.13413577 0.70098346 0.15604141
0.13556227 0.057520684 0.24287316 1.4816686 0.21096423 0.30104157 0.13909887 0.12963976
0.25696737 0.19798017 0.15719444 0.09486518 0.18592621 0.31210598 0.24233267 0.39987892
0.50778395 0.20341356 0.19653794 0.42289668 0.31382316 0.105148494 0.18018673 0.19448312
0.1506023 0.10832758 0.19527599 0.0707807 0.1496829 0.23886041 0.04431384 0.14032716
0.1569777 0.3005599 0.17954692 0.3819035 0.07646806 0.2767429 0.5134217 0.14729424
0.73392576 0.7499745 0.25272843 0.6388304 0.18643358 0.46573415 0.118346184 0.4891198
0.101715736 0.2761329 0.19734213 0.2502368 0.29718572 0.108727984 0.32745308 0.41646448
0.4642852 0.43913105 0.23583893 0.30383304 0.21482256 0.33053577 0.24590671 0.30515692
0.36154133 0.17045003 0.16411172 0.20041676 0.20385548 0.6443987 0.31276515 0.18351421
0.12090033 0.25558147 0.5622596 0.30421066 0.2011627 0.4446388 0.27564535 0.07216721
0.091029204 1.447478 0.33649838 0.23351212 0.14558043 0.2234383 0.22815274 0.15359163

fc2.weight f4 [256, 260]
00000000: 749d c7bd 7328 35be 1211 04bf 3bea 8dbe
00000010: eb48 893e b359 6cbd 7721 8d3e 0134 87be
00000020: 19c9 a8bc 7403 413d 7d0b 02bd 2c20 5cbc
00000030: c49a 14be 2f97 fbbd 2393 533e 2549 0ebd
00000040: bcd2 3ebe 0fa3 32bd 79fc e43d 9637 a83d
00000050: acfc a3be 13a9 dbbe b89a afbc 6f6b 1bbe
00000060: 79c2 d0be 98fe 42bf 363b d9be d969 46bc
00000070: 6d2b dd3e d6ca c8be 945d e4bd 0e8e 93be
00000080: f2a8 b73d 7771 153e 7ffc 00be c12e 65bc
00000090: d36f 73be f46d 8cbd e9a5 2bbe a0e7 653c
000000a0: 3062 9bbe 5a07 84bd 5896 053e e6ba 503e
000000b0: cbeb 113e 36f6 0abf 34b8 bc3c 26cb fc3d
000000c0: 3ca8 d5be 0a31 82be 045d 3abe 7a15 5ebd
000000d0: 4899 aebe a3e7 4dbe 8212 09be baf1 d83d
000000e0: 8e0c babe 7884 cb3e 88e0 96bd 6679 1dbf
000000f0: c77c d3bd 0d51 d6bd efc6 30bd 4af0 d3be
00000100: 4067 c83e 0eee 8ebd d366 b8b9 df01 e53c
00000110: 06ee c2bd d714 38be 5650 83be e11a 803c
00000120: 171a e13d c3ee 2b3d 60aa cf3d 5ddf 46bd
00000130: 11cd 9e3d fb92 1b3d 227e 3dbe de13 e9be
00000140: 18a3 a73e 7f25 c7be 8f13 8fbe 782c 9e3d
00000150: e639 8cbe 5b53 84be bd89 f6bd 06c5 513d
00000160: 31f4 45be e6bd cb3d d70a e63d 13fc db3d
00000170: 49a0 1cbe 12c5 edbd 0c1b 223e 6282 2e3e
00000180: 9c1c 88be 4f59 8cbe da28 983d 4f74 a23e
00000190: 925e cebd eb28 e73d 2e89 9c3c 4607 0dbe
000001a0: a49e 8e3d b905 9ebe f7a7 e23d 78d9 12be
000001b0: faec c03e c0ac 68be 79e5 5e3e 775f b2bc
000001c0: 0ddf 323e c01d 98bc c57e 86bd 8c5f 483e
000001d0: 1c1d 0ebf ca4b 65bd 5ef4 013e dd24 1ebf
000001e0: b788 ebbd 9e0a 88bd 1571 1cbe 6de7 24be
000001f0: 4f08 6cbd 68ee f1bd 249b ffbb 8044 6dbd
00000200: e679 debd 67ed 0cbe 4a93 d5be a083 ad3d
00000210: d11c 8abe 71e3 adbd 4a81 55be cdac 68be
00000220: 18fd 06bf ad81 063d 5bba 053e c05d 8ebe
00000230: 6c49 56bd 66fd 243e ca14 04bd debc bcbe
00000240: 748c b9bd a33e 5abe b7ac 33be 614a fdbe
00000250: 2dc3 a7be 0c43 54bf bb35 90bd 7656 52bd
00000260: 9ee9 1e3e 8911 92bd 3b4b b5be 8164 943e
00000270: 869f ebbe 5e8e f7bc 5513 87bd ed42 b3be
00000280: 3c1c 24be b978 5dbd c01a 2bbe 3d10 933d
00000290: 6a65 113d 5f0f 52bf f244 f73b be80 f2bc
000002a0: 8bdf aabe aa85 a9bd cea8 da3d b38c 7abd
000002b0: 8aae 25be 28ab 923e 08ef 693d 76b2 ebbc
000002c0: 6840 d8be 91c7 e7be fe14 68bd 8329 3d3e
000002d0: 2bcd 283d 0d66 37be 90d9 9d3e 3138 323d
000002e0: cb04 113e d18e e93c b088 66bd d371 42be
000002f0: f3c0 e2bd e57b 2c3e 7d68 03be 4da2 a9be
00000300: ad98 33bd 4a61 0dbe ecc2 51bd 5372 f73d
00000310: 665d 513e 1875 80be 6a01 d6be 363a c9bd
00000320: 41d0 14be 331b 5dbe 7e8d ac3d fa4f 03bf
00000330: e566 8abc d755 b23d 00c9 99be 31f3 babe
00000340: e472 383e 04bb 91be 62e9 223e 3054 f2bd
00000350: 9577 25bc d4fa efbe 3d3f e73e 9cd2 603e
00000360: 8028 49bd 86d4 acbe d9f4 e6be 7409 bebb
00000370: 1502 b23e ab5f 94be 08bc d2be df56 f2bd
00000380: 5e18 46be 0ea0 f3be a276 a9be fdb4 863e
00000390: 2b13 d3be a658 92bd e6a2 8b3d 9734 70bd
000003a0: 7f0a c9be bc18 66bc bfc6 30be 2095 c8bc
000003b0: f938 2bbe 804a 0dbe 9b21 8abc 472c 86be
000003c0: a1ac bebe 186d dcbe 43e3 ee3d 82f2 c83d
000003d0: d673 a1be 37a6 afbc 2cef 57be 8ffa bdbe
000003e0: c743 163c a058 a63e d820 553e f422 5a3d
000003f0: 2cdf b4bc f2ba 0bbc ecd1 35be 9613 8dbd
-0.09746829 -0.17691211 -0.5158855 -0.27717766 0.26813444 -0.05770273 0.27564594 -0.26406863
-0.020603703 0.047122434 -0.031749237 -0.013435405 -0.14512163 -0.12284695 0.20661597 -0.034737725
-0.18635076 -0.043612536 0.11180968 0.08213727 -0.3202871 -0.4290243 -0.02143608 -0.15177701
-0.4077337 -0.7616973 -0.42427987 -0.012110197 0.43197194 -0.39217252 -0.11150661 -0.28819317
0.08967771 0.14594065 -0.1259632 -0.013988198 -0.23773126 -0.068569094 -0.16762508 0.0140322745
-0.3034835 -0.06446715 0.13045633 0.20383796 0.14250104 -0.5428194 0.023037054 0.12343435
-0.41729915 -0.2542804 -0.18199545 -0.0542197 -0.3410132 -0.20107894 -0.13385966 0.10592981
-0.36337703 0.39749503 -0.07367045 -0.61513364 -0.10326534 -0.10464678 -0.043158468 -0.41394264
0.39141273 -0.06978999 -0.00035171825 0.027954994 -0.095180556 -0.179767 -0.2564723 0.015637817
0.10991304 0.041975748 0.10139918 -0.04855286 0.07753957 0.03798197 -0.18505147 -0.4552297
0.32741618 -0.38895795 -0.2794461 0.077233255 -0.27387923 -0.25844845 -0.1203799 0.051213287
-0.19331433 0.0994833 0.11232536 0.10741439 -0.15295519 -0.11609854 0.1583063 0.17041925
-0.26584327 -0.27411887 0.07429667 0.3172936 -0.100766316 0.11287101 0.019108381 -0.13772306
0.06963852 -0.3086374 0.11067193 -0.1434077 0.376808 -0.22722149 0.21767224 -0.021774037
0.174679 -0.018568873 -0.06567148 0.19567698 -0.5551317 -0.05598048 0.12690875 -0.61775
-0.11500686 -0.0664265 -0.15277512 -0.16103907 -0.05762511 -0.118130505 -0.0078004766 -0.057926655
-0.10863094 -0.13762437 -0.41713935 0.08472371 -0.2697511 -0.08490647 -0.20850101 -0.22722168
-0.5272994 0.032838512 0.1305937 -0.278059 -0.052316114 0.16112289 -0.03224639 -0.36862844
-0.090599924 -0.21312957 -0.17546354 -0.4947081 -0.32766095 -0.82914805 -0.07041498 -0.051351987
0.15518805 -0.07132251 -0.3540896 0.28982928 -0.46020144 -0.030219253 -0.06595484 -0.35011998
-0.16026396 -0.05407021 -0.16709423 0.071808316 0.035497107 -0.82054704 0.0075460607 -0.029602405
-0.33373675 -0.082774475 0.10676728 -0.061169337 -0.16179863 0.28646207 0.057112724 -0.02877162
-0.42236638 -0.45269445 -0.056660645 0.18472867 0.04121129 -0.17910023 0.3083005 0.04351062
0.14161985 0.028510483 -0.0562827 -0.18988733 -0.110719584 0.16844137 -0.12832828 -0.33131638
-0.043846775 -0.13806644 -0.051211283 0.120823525 0.20445785 -0.25089335 -0.41797954 -0.09825556
-0.14532568 -0.21592407 0.08425425 -0.5129391 -0.016894767 0.08707779 -0.30036163 -0.36513665
0.18012577 -0.28462994 0.15909341 -0.11832464 -0.010099311 -0.46871054 0.45165434 0.21955341
-0.04911089 -0.33755893 -0.4510868 -0.0057994667 0.34767213 -0.2897924 -0.4115908 -0.118329756
-0.19345233 -0.4758305 -0.33098322 0.26309958 -0.41225561 -0.071458146 0.0681818 -0.058643904
-0.3926582 -0.014043983 -0.17263316 -0.02448517 -0.16720952 -0.1379795 -0.016861727 -0.26205656
-0.3724108 -0.43051982 0.116644405 0.0981188 -0.31533688 -0.021441562 -0.2108733 -0.37105224
0.009171433 0.3248949 0.2081331 0.05325599 -0.022079073 -0.008528458 -0.1775586 -0.06888501

fc2.bias f4 [256]
00000000: 0c78 82be 698e 97be 462b 253e 2772 36be
00000010: 8a6a 39be 0386 33be f3db 3dbe 56f4 29be
00000020: 9b53 92bd 93be 5ebe 9a94 85be 5a22 b9be
00000030: 90eb 19be ff6a efbd 4ea2 613d 7ef5 3bbe
00000040: 8708 c4bd 5893 1cbe f808 98bd 6af4 8ebe
00000050: ce57 e0bd 80ba 203d 7a2c 473e 7935 16be
00000060: 6e6e a8bd 3e0d 88be 905f 143e 6da0 bcbe
00000070: 24c8 2cbe 5d4a f53c 76fa 9cbe fe91 87be
00000080: 0063 41be 86a0 82be 95e9 edbd 7e92 82be
00000090: 5f27 4abe 6927 c2bd bedd 66be 6197 95be
000000a0: 3fb9 9dbc c9c3 77be c937 bfbd 73c0 05bd
000000b0: 973f aabd 9b7a 6ebe 0716 39be b883 39be
000000c0: 0fca 93bd 075e 613e dd9f 033f 1e66 66bd
000000d0: 93e7 383f 223e 33be e841 f93d e0b1 75be
000000e0: bb50 83be 91ca 5ebe e37a 8a3e 7145 39be
000000f0: 7bc5 ac3d b76c a6bc cb0c a2be 9ef8 83be
00000100: 065e 53be 22fd eebd c874 34be ba12 86be
00000110: 2086 3e3d b1ef a9be 5af8 4fbe d178 2dbe
00000120: db0c 75be 8777 56be 3e72 11be da2b 80be
00000130: db3b 5ebe 219e 6bbe cf2c 36be b780 61be
00000140: b0f9 00be eb2c abbe 445b 69be 5a16 ddbd
00000150: bcbd 13bd a53b 90be 1dc8 d73d 7194 063e
00000160: 88c7 87be 1103 023d 4cac 8ebe f602 1ebe
00000170: 5dde 47be 7717 d4bd f85b 4fbe c3a6 5dbe
00000180: 9f51 59be 6c1c 5dbe e0d8 9abe 3ff7 8b3e
00000190: fc56 17bb 7e3e b13d efb7 06be f7e5 1cbe
000001a0: f85d 84be 6fa6 30be 10f4 6bbe 2d3b 89be
000001b0: 3648 e53d fbd8 08be 8940 88be 4014 da3c
000001c0: 15b2 0cbe 2167 93be 873a 65be 806c c5bc
000001d0: 6e1c cfbe 5d67 86be e59b 86be c1e5 57be
000001e0: 1e20 843d 4fb0 70be d2c5 1dbe 44ea 37be
000001f0: e77d ff3d a019 52be 89dc 33bd 6af7 57be
00000200: ba30 913c b1e3 1fbd 9ebf 36be 5a7d adbe
00000210: f4db 6e3d e344 55be 22d0 b8be 1cd6 953e
00000220: f4dc 78be 3278 4dbe ff40 87be ed77 f73d
00000230: 626f a1be 5340 7abe 9331 debd 46b4 80be
00000240: 5b6c a0bd ef1d 87be 2c37 56be 1407 173e
00000250: deae 7cbe b257 e13d 8d8c 443e 84fd 5fbe
00000260: 33d3 52be 3f8a 22be afe3 20be 4873 aa3d
00000270: a1bb 7abe 91d0 60be 0613 49be f0eb e63b
00000280: d551 26be a645 52be 231f b13d c4a9 96bd
00000290: fc94 49be 2af5 cdbd 0e81 ba3c 1d4c a9be
000002a0: 3ecc 1dbe 8efe 4b3e 6069 c2be 9405 05be
000002b0: c995 f2bc 1a87 8bbe 9554 5ebe da8c 55be
000002c0: 0e15 66be e662 253d b3b8 053e dd69 8cbe
000002d0: a439 46be 7a53 d5bd 7df1 9fbd df49 3d3d
000002e0: 8d48 afbb ccb7 50be a847 72be d70b a7be
000002f0: faef 10be 2947 b3bd 3412 82bd 0d8a 8dbe
00000300: 713e 643e ac11 33be 7c89 2cbe 214a 51be
00000310: 507c 87be e4f7 ef3e 451f ea3e 138e 25be
00000320: 4f0b 9d3d cc3b 9dbd a257 563e 58cc 10be
00000330: 5ad3 44be e20f a33c 8ff3 28be 4e87 45be
00000340: efd4 b23a 0d07 0fbe cffd 233e 98cf 80bd
00000350: d405 67bd d8f2 303d fc91 0b3d 7d7d 45be
00000360: e375 953c ad42 dbbd 1347 67be 61f7 57be
00000370: 487b 5abe a13c 3dbe 8158 5abe 3471 99be
00000380: b0e6 8fbe 1368 d1bd 463f 42be 5e17 f2bd
00000390: 8a3c 7b3e 7056 74be b581 11bd 89d1 4fbd
000003a0: 76b2 5fbe ead0 48be 4699 6fbe 2d0f efbd
000003b0: 8291 68be e254 f1bd 3b1a 47be 1aa2 9bbd
000003c0: bf64 aebd 0421 f2bc 2d2d 583d bf62 f6bc
000003d0: d8ba 97bd b4db efbe 2474 d9be 73c8 c5bd
000003e0: 66c3 28be 1a81 0dbe 487c 80bc 4d65 eebd
000003f0: f6d3 21be 8f56 66be bda2 093a 0938 9fbe
-0.25482213 -0.29600838 0.16129789 -0.17816983 -0.18107048 -0.1753159 -0.18540935 -0.16597113
-0.07144853 -0.21752386 -0.26089936 -0.3615902 -0.15031266 -0.1169033 0.055086426 -0.18355367
-0.09571939 -0.15290582 -0.07423586 -0.27920848 -0.109542474 0.03924036 0.1945056 -0.14668836
-0.08224188 -0.26572603 0.14489579 -0.36841145 -0.16873223 0.029942686 -0.30659837 -0.2647857
-0.18885422 -0.25513095 -0.11616818 -0.2550239 -0.19741581 -0.09480173 -0.22545525 -0.29217055
-0.019253371 -0.2419578 -0.09336812 -0.032654237 -0.0831291 -0.23288958 -0.18074809 -0.18116653
-0.07216274 0.22008525 0.51415807 -0.05624973 0.72228354 -0.1750417 0.12170774 -0.23993635
-0.2564753 -0.2175696 0.2704688 -0.18092896 0.08436104 -0.020315511 -0.31650385 -0.25775617
-0.20641336 -0.11669375 -0.17622674 -0.26186162 0.04651463 -0.33190683 -0.20309582 -0.16940619
-0.23930685 -0.20944034 -0.14203736 -0.25033456 -0.2170252 -0.2300954 -0.1779053 -0.22021757
-0.12595248 -0.33432707 -0.22788721 -0.10795279 -0.036069617 -0.28170505 0.105362155 0.13142563
-0.26519418 0.031741206 -0.27865827 -0.15430817 -0.19518419 -0.10356038 -0.20249927 -0.21645646
-0.21222542 -0.21592873 -0.30243587 0.2733707 -0.0023092618 0.086544976 -0.13156103 -0.153221
-0.25852942 -0.1725099 -0.23042321 -0.2680296 0.11195414 -0.13364021 -0.26611736 0.026620984
-0.13739808 -0.2878962 -0.22385608 -0.024099588 -0.40451378 -0.26250735 -0.26290813 -0.21083738
0.06451438 -0.23504756 -0.15407494 -0.17960459 0.12475186 -0.20517588 -0.04391149 -0.21090475
0.01772343 -0.039035503 -0.17846534 -0.33884698 0.058315232 -0.2082706 -0.36096293 0.29264915
-0.24303037 -0.20065382 -0.26416776 0.12083421 -0.3153029 -0.244386 -0.10849299 -0.25137538
-0.07833167 -0.26390025 -0.20919484 0.14748794 -0.24676082 0.11003055 0.19194241 -0.21874052
-0.20588379 -0.15873049 -0.15711854 0.083227694 -0.24485637 -0.21954562 -0.19636163 0.007047169
-0.16242154 -0.20534381 0.08648517 -0.07356599 -0.1968574 -0.10056527 0.022766616 -0.33065882
-0.15409943 0.19921324 -0.3797102 -0.12990409 -0.029612439 -0.27251512 -0.21711953 -0.20854512
-0.22468969 0.04037752 0.13058738 -0.27424517 -0.19357926 -0.104163125 -0.07809732 0.046213027
-0.005349225 -0.20382613 -0.23660147 -0.3262622 -0.14154044 -0.08753807 -0.06351128 -0.27644387
0.22289445 -0.1748721 -0.16849321 -0.20438434 -0.2646203 0.46868813 0.45726982 -0.16167478
0.076681726 -0.07677421 0.20931867 -0.14140451 -0.19221249 0.019905034 -0.1649916 -0.19289896
0.0013643781 -0.13967533 0.16014789 -0.06289595 -0.056402043 0.043200344 0.03407477 -0.19286151
0.01824469 -0.10706077 -0.22585706 -0.21090461 -0.2133609 -0.1848016 -0.21322824 -0.2996918
-0.28105688 -0.10224929 -0.1896945 -0.11820863 0.24534813 -0.23861098 -0.03552409 -0.050736938
-0.21845421 -0.19610944 -0.23398313 -0.116728164 -0.22711757 -0.11783768 -0.194436 -0.07599278
-0.085153095 -0.029556759 0.052777458 -0.030076383 -0.074086845 -0.46847308 -0.4247142 -0.09657373
-0.16480789 -0.1381878 -0.015684262 -0.11640415 -0.15803513 -0.22493957 0.0005250385 -0.3109744
