weights/checkpoint_actor.pth (torch_old, 312317 bytes, 14 tensors)

fc1.weight f4 [256, 33]
-0.1458567 -0.26396024 -0.204201 0.3956684 0.18208343 0.1276182 -0.041213363 -0.23631436
-0.08314327 -0.20514391 -0.0029695968 -0.024243185 -0.019757183 -0.17804573 0.21665333 0.21370235
0.5531271 -0.04775908 -0.43231958 -0.072913624 -0.0015628765 0.024699472 -0.02498528 -0.06727515
-0.0339923 0.18272293 0.21842806 0.055442944 -0.034619387 0.017931432 0.015198568 -0.03510087
0.6603754 -0.34530628 0.017707821 0.21687864 0.2891369 -0.31836808 0.36027947 0.42053238
-0.059983313 -0.0017009601 -0.12971999 -0.016209636 -0.0023867502 0.07678216 -0.22910647 0.12091348
0.038266096 -0.3609488 -0.25038522 0.37150118 0.25700608 0.04579516 -0.12555476 0.04483732
-0.08370509 0.021807885 -0.07879147 0.25264478 0.15617342 -0.11306982 0.04243861 -0.07801844
-0.028954573 -0.6639085 -0.17380929 0.03353822 0.23687764 -0.15386093 -0.45926106 -0.053187847
-0.69497365 -0.057226755 0.14391284 0.19263092 0.06847484 0.12336502 -0.00034923016 0.34078425
-0.17783356 -0.23777203 -0.37017265 -0.1535492 0.053107 -0.10754762 -0.008048689 -0.13550806
-0.06901533 0.12151676 -0.05966335 -0.11175006 -0.12262263 0.22956881 0.1150831 -0.044189587
-0.22416134 0.04854983 -0.44009033 0.006200459 0.18010485 -0.068421885 -0.4846145 0.14250526
0.16097611 0.35922325 -0.105832435 0.36092198 -0.119174376 -0.00988943 -0.041971043 0.06615409
0.09987434 -0.004570804 0.14443311 -0.34794676 0.2259833 -0.4675481 -0.99102914 -0.030912763
-0.05834412 -0.033503387 0.047110908 0.09992538 0.053452313 -0.23393317 0.22704358 0.04695486
-0.0506315 -0.10652367 0.03628829 -0.71005416 0.08703121 0.11561625 0.010909633 0.461015
0.3444761 -0.55553603 0.30429584 -0.0077918805 -0.116833635 0.1629121 0.18040805 -0.037089795
0.07362399 0.19289263 -0.1607409 -0.083984695 -0.066334374 -0.3134404 0.6479092 0.11140102
-0.111740686 -0.02864789 -0.030175162 0.17408004 0.13028121 0.3275294 -0.032525077 0.25162965
-0.01720551 -0.020763762 -0.28051808 -0.05240822 -0.54985267 -0.17103174 0.30220145 -0.05156037
0.41586575 -0.5847861 -0.81577253 0.13344328 -0.12728333 0.044850543 0.1235851 0.007344094
0.08099761 -0.024783297 0.14009483 0.045423403 0.18377565 -0.106963135 0.2841017 0.56347525
0.087145895 0.12865569 -0.03487903 0.116444394 0.20116611 -0.17005952 -0.039191823 0.14183661
0.2815004 0.093240626 0.040425293 -0.27904573 0.021376692 -0.21268174 0.18976793 0.16731223
-0.17957225 0.155176 -0.09752259 0.30553594 -0.21403502 0.029594526 0.358351 -0.080424584
-0.05363301 0.084416874 -0.1511281 -0.45241743 -0.157456 0.12185041 -0.23782004 -0.032178212
-0.42646772 0.10992637 -0.009915497 -0.016161863 0.026680138 -0.09841131 -0.10039154 -0.08001801
-0.01306599 0.30373856 0.066975445 0.051139265 -0.3334759 -0.011985958 -0.20327394 0.09403728
-0.08353511 -0.10010758 0.23660003 -0.51903075 0.37086982 0.22036535 -0.19944474 -0.18271354
0.0676203 0.16365024 0.002425369 0.068195745 0.06196082 0.07290038 0.050923143 -0.35068455
-0.95002943 -0.23212664 0.8635425 -0.048532184 -0.06742261 0.005755977 -0.069119655 -0.011021129
00000000: 755b 15be cc25 87be 111a 51be 0c95 ca3e
00000010: 1474 3a3e 58ae 023e 58cf 28bd 64fc 71be
00000020: 0547 aabd 3f11 52be 919d 42bb a599 c6bc
00000030: d1d9 a1bc 9f51 36be 5fda 5d3e cad4 5a3e
00000040: bd99 0d3f 069f 43bd fe58 ddbe bd53 95bd
00000050: 6fd9 ccba 8c56 ca3c eead ccbc 8ec7 89bd
00000060: 833b 0bbd b81b 3b3e 9bab 5f3e 2418 633d
00000070: 0fcd 0dbd f0e4 923c 6a03 793c eec5 0fbd
00000080: 5d0e 293f fccb b0be fe0f 913c 6f15 5e3e
00000090: c009 943e 2401 a3be 8d76 b83e 0550 d73e
000000a0: 10b1 75bd c0f2 deba 51d5 04be 12ca 84bc
000000b0: 066b 1cbb f73f 9d3d e39a 6abe 7da1 f73d
000000c0: e9bc 1c3d 48ce b8be 7e32 80be 6735 be3e
000000d0: 4d96 833e b593 3b3d 6d91 00be 56a7 373d
000000e0: 936d abbd 73a6 b23c 6c5d a1bd a85a 813e
000000f0: edeb 1f3e 2691 e7bd 1cd4 2d3d 22c8 9fbd
00000100: 2432 edbc e8f5 29bf 10fb 31be 5f5f 093d
00000110: 0d90 723e b88d 1dbe 4424 ebbe 80db 59bd
00000120: cbe9 31bf 9a66 6abd e35d 133e 0a41 453e
00000130: 893c 8c3d cda6 fc3d e118 b7b9 467b ae3e
00000140: 001a 36be 837a 73be 4587 bdbe 003c 1dbe
00000150: ba86 593d ed41 dcbd a6de 03bc a0c2 0abe
00000160: e957 8dbd c7dd f83d 8f61 74bd 37dd e4bd
00000170: 9321 fbbd 1614 6b3e b0b0 eb3d 2400 35bd
00000180: 8d8a 65be 30dc 463d 8553 e1be 382d cb3b
00000190: 686d 383e c620 8cbd 641f f8be e6ec 113e
000001a0: ecd6 243e 1cec b73e adbe d8bd c4ca b83e
000001b0: b211 f4bd 4707 22bc d4e9 2bbd cc7b 873d
000001c0: eb8a cc3d afc6 95bb 46e6 133e 1426 b2be
000001d0: 2b68 673e 7762 efbe 16b4 7dbf c33c fdbc
000001e0: 3efa 6ebd d93a 09bd 5ef7 403d ada5 cc3d
000001f0: d0f0 5a3d 2d8c 6fbe 1d7e 683e bd53 403d
00000200: fa62 4fbd 1529 dabd 08a3 143d 1cc6 35bf
00000210: 6b3d b23d 36c8 ec3d 51be 323c 280a ec3e
00000220: 2c5f b03e 9c37 0ebf aacc 9b3e 0853 ffbb
00000230: 7946 efbd 6ed2 263e e3bc 383e 78eb 17bd
00000240: 2dc8 963d a585 453e 4399 24be 2b00 acbd
00000250: 51da 87bd 437b a0be 61dd 253f 3826 e43d
00000260: 4dd8 e4bd fbae eabc e731 f7bc 0a42 323e
00000270: 7068 053e efb1 a73e 0439 05bd 9ad5 803e
00000280: 92f2 8cbc c418 aabc 11a0 8fbe 00aa 56bd
00000290: 25c3 0cbf f222 2fbe 26ba 9a3e f730 53bd
000002a0: 5bec d43e 8bb4 15bf 78d6 50bf 5ba5 083e
000002b0: 9056 02be 34b5 373d 2f1a fd3d baa6 f03b
000002c0: 13e2 a53d 5706 cbbc 0575 0f3e e40d 3a3d
000002d0: af2f 3c3e 7d0f dbbd c775 913e ea3f 103f
000002e0: 8c79 b23d 51be 033e 50dd 0ebd 667a ee3d
000002f0: 7dfe 4d3e 1524 2ebe 9b87 20bd 9e3d 113e
00000300: d220 903e f1f4 be3d fe94 253d 15df 8ebe
00000310: 2c1e af3c 3ec9 59be 8652 423e e653 2b3e
00000320: cae1 37be 75e6 1e3e ecb9 c7bd 356f 9c3e
00000330: ff2b 5bbe 3870 f23c c879 b73e a5b5 a4bd
00000340: 49ae 5bbd c1e2 ac3d 53c1 1abe 42a3 e7be
00000350: 253c 21be b58c f93d 1987 73be 4dcd 03bd
00000360: fa59 dabe 1421 e13d 9c74 22bc e265 84bc
00000370: 4e90 da3c de8b c9bd 149a cdbd 7ce0 a3bd
00000380: bc12 56bc 9f83 9b3e 6c2a 893d 6877 513d
00000390: 5abd aabe c060 44bc 0b27 50be 9e96 c03d
000003a0: 7514 abbd 3405 cdbd 4747 723e 33df 04bf
000003b0: a6e2 bd3e 74a7 613e 3e3b 4cbe 4219 3bbe
000003c0: 837c 8a3d ee93 273e f1f2 1e3b 36aa 8b3d
000003d0: a1ca 7d3d cb4c 953d c994 503d ed8c b3be
000003e0: 2135 73bf 9bb2 6dbe 1f11 5d3f afc9 46bd
000003f0: de14 8abd a29c bc3b 9b8e 8dbd f791 34bc

fc1.bias f4 [256]
-0.060804363 -0.22512229 -0.048746172 -0.21910295 -0.20159712 -0.2947758 -0.4606112 0.054134063
-0.010851225 -0.018866016 -0.36948612 -0.017723959 -0.54291016 0.030593963 0.2646812 0.0853867
-0.13774396 -0.3369627 -0.12404547 -0.30846328 -0.31586832 -0.32063556 -0.20828788 0.08805035
-0.19302602 0.00039045914 -0.16387786 -0.14477508 -0.110166475 -0.28175476 -0.31363195 0.021260072
-0.17706358 -0.25832438 -0.4247842 -0.084774256 -0.29949963 -0.3970709 -0.09868337 -0.1617941
-0.45303017 -0.41845444 -0.27071336 -0.14122505 -0.13366684 -0.3191532 -0.07235489 -0.313023
-0.027584724 0.099505894 -0.20149104 -0.19019602 -0.3184147 -0.2919575 -0.2086901 -0.09847406
-0.1520036 -0.120306015 -0.4113779 -0.34781316 -0.29216173 -0.3975093 -0.22057286 -0.19644184
-0.46148133 -0.34800473 -0.059122726 -0.43782198 -0.18324041 -0.3816622 -0.36151323 -0.45860782
-0.30735183 -0.12700434 -0.18508266 0.023049913 -0.08496715 -0.02918348 -0.25262728 -0.13632856
0.06540517 0.16361645 -0.35215938 -0.22574587 0.08898823 -0.0067109913 -0.38990155 -0.4049669
-0.05673124 -0.046640195 -0.27005076 -0.115078785 -0.28104356 -0.14831762 -0.35830083 0.032479014
-0.260696 -0.30632457 -0.45753154 -0.23061189 -0.34306088 -0.19788925 -0.19779263 0.067397416
-0.36215305 -0.35438526 -0.15271895 -0.30150595 -0.38897887 -0.25293195 -0.06595167 0.0086904485
-0.6134451 -0.1456357 -0.322481 0.08485802 -0.36270475 -0.25661832 0.13664885 -0.25410643
-0.28130504 0.041576598 -0.24745841 -0.020710351 0.14304681 -0.07968082 -0.40454715 -0.065083735
-0.13332924 -0.3484934 -0.37436157 -0.3933012 0.062516995 -0.3320446 -0.21689388 -0.084114395
-0.1443497 -0.3551889 -0.246084 -0.27794826 -0.2836299 -0.13165477 -0.07200425 -0.18854162
-0.020500392 -0.06958668 -0.3086654 0.015846243 -0.27667424 -0.57972795 -0.5440051 -0.17135903
0.03839886 -0.10715927 -0.18258621 -0.15135132 -0.42699638 -0.18040977 -0.17937914 -0.39973223
-0.10034368 -0.04133897 -0.28157416 0.16677421 0.14469814 -0.45712382 -0.46310377 -0.08859215
-0.39808196 -0.23881552 -0.26206294 -0.15414406 -0.31949434 -0.29459122 -0.17737435 -0.12051927
-0.27814952 -0.7003524 -0.057456587 -0.22115584 -0.32608962 -0.16842718 -0.27655393 -0.38364643
-0.4421091 0.007629378 -0.0066475826 -0.37687615 0.055055983 -0.0043541333 -0.5087024 -0.22784843
-0.28804263 -0.32272202 -0.16162501 -0.3258499 -0.17425948 -0.13171598 -0.26966515 -0.17108054
-0.03132624 0.19082648 -0.23372838 -0.0738911 -0.20617314 -0.29016244 -0.5419472 -0.21394143
-0.039828982 -0.059949838 0.054410666 -0.14166926 -0.2636906 0.089551754 -0.18218447 -0.25051412
-0.5051305 -0.50125563 -0.3868312 -0.068660624 -0.348883 -0.39250666 -0.10389335 -0.41586074
-0.20239712 -0.41754812 -0.1900516 -0.113002196 -0.11530242 0.0054955394 -0.09032035 -0.36482495
0.024491446 0.18196008 -0.32262313 -0.18691929 -0.1066427 -0.14081895 -0.47051847 -0.2959368
-0.32077327 -0.17870499 -0.26220107 -0.22464477 -0.12229146 -0.099306256 -0.22224943 -0.11563182
-0.111858904 -0.101730414 -0.1670438 -0.61026645 -0.39717057 -0.07707854 -0.52967334 -0.1623914
00000000: ff0d 79bd 7586 66be 11aa 47bd 865c 60be
00000010: 7a6f 4ebe dbec 96be 3bd5 ebbe aebb 5d3d
00000020: 56c9 31bc e78c 9abc 492d bdbe d631 91bc
00000030: 29fc 0abf 31a0 fa3c 4b84 873e 39df ae3d
00000040: c10c 0dbe 6086 acbe 8d0b febd e6ee 9dbe
00000050: 7eb9 a1be 582a a4be 6b49 55be be53 b43d
00000060: 9da8 45be 8ab6 cc39 99cf 27be eb3f 14be
00000070: f69e e1bd 2942 90be 5e94 a0be 9a29 ae3c
00000080: 2850 35be 1843 84be 517d d9be 209e adbd
00000090: 0458 99be e14c cbbe 821a cabd 5aad 25be
000000a0: 92f3 e7be a93f d6be f19a 8abe 4d9d 10be
000000b0: f6df 08be 0c68 a3be cd2e 94bd 8d44 a0be
000000c0: 5cf9 e1bc bfc9 cb3d ab53 4ebe bfc2 42be
000000d0: 4007 a3be 747b 95be dcb2 55be c5ac c9bd
000000e0: d5a6 1bbe 0063 f6bd 20a0 d2be 9114 b2be
000000f0: 3996 95be 5786 cbbe dadd 61be 0d28 49be
00000100: 4847 ecbe ad2d b2be ac2a 72bd 342a e0be
00000110: 60a3 3bbe 3a69 c3be 4318 b9be a5ce eabe
00000120: 385d 9dbe 6d0d 02be 4f86 3dbe 2cd3 bc3c
00000130: 4203 aebd 3212 efbc 5d58 81be b799 0bbe
00000140: 25f3 853d 128b 273e 3c4e b4be ed29 67be
00000150: 763f b63d e0e7 dbbb 2da1 c7be d257 cfbe
00000160: 045f 68bd ca09 3fbd 1844 8abe 6dae ebbd
00000170: f1e4 8fbe 93e0 17be 3573 b7be b708 053d
00000180: f279 85be 93d6 9cbe 9341 eabe 8625 6cbe
00000190: ada5 afbe 7ba3 4abe 278a 4abe a807 8a3d
000001a0: 206c b9be fc71 b5be 5b62 1cbe fd5e 9abe
000001b0: 3d28 c7be 4c80 81be ab11 87bd 6262 0e3c
000001c0: bd0a 1dbf 8621 15be 3b1c a5be 0bca ad3d
000001d0: 70b4 b9be 7a63 83be aded 0b3e 3d1a 82be
000001e0: 3707 90be 394c 2a3d bd65 7dbe c1a8 a9bc
000001f0: dd7a 123e b32f a3bd ce20 cfbe 9f4a 85bd
00000200: 7687 08be ba6d b2be 52ac bfbe c65e c9be
00000210: e908 803d c001 aabe 6e19 5ebe 2b44 acbd
00000220: 68d0 13be 52db b5be 72fd 7bbe 3c4f 8ebe
00000230: f037 91be 82d0 06be f776 93bd 0e11 41be
00000240: 70f0 a7bc 7683 8ebd 6409 9ebe fbcf 813c
00000250: 3fa8 8dbe 0d69 14bf eb43 0bbf be78 2fbe
00000260: 1f48 1d3d 5276 dbbd e1f7 3abe d7fb 1abe
00000270: 459f dabe 57bd 38be 2aaf 37be b4a9 ccbe
00000280: fd80 cdbd 0d53 29bd 7d2a 90be dcc6 2a3e
00000290: c02b 143e 220c eabe f01b edbe cd6f b5bd
000002a0: 66d1 cbbe 0e8c 74be 1d2d 86be f1d7 1dbe
000002b0: c394 a3be a9d4 96be 9fa1 35be cfd2 f6bd
000002c0: 9d69 8ebe 4b4a 33bf 9957 6bbd ad76 62be
000002d0: 38f5 a6be 2d78 2cbe 7a98 8dbe 4e6d c4be
000002e0: 205c e2be dcff f93b f7d3 d9bb e9f5 c0be
000002f0: 6282 613d 1ead 8ebb 523a 02bf 1951 69be
00000300: 537a 93be d23b a5be 0781 25be ccd5 a6be
00000310: 1471 32be 8ee0 06be 8d11 8abe bd2f 2fbe
00000320: f24f 00bd 0468 433e 7e56 6fbe 3854 97bd
00000330: 0d1f 53be 2c90 94be 0dbd 0abf 7613 5bbe
00000340: b723 23bd f68d 75bd b8dd 5e3d bf11 11be
00000350: 7402 87be e966 b73d 918e 3abe 6343 80be
00000360: 3c50 01bf 4a52 00bf bd0e c6be f19d 8cbd
00000370: cba0 b2be a2f6 c8be 09c6 d4bd b3eb d4be
00000380: 3141 4fbe dec8 d5be e39c 42be b26d e7bd
00000390: ad23 ecbd ed13 b43b e0f9 b8bd 56ca babe
000003a0: 49a2 c83c be53 3a3e dc2e a5be c567 3fbe
000003b0: 7d67 dabd d832 10be cce7 f0be 0785 97be
000003c0: 653c a4be 71fe 36be 383f 86be 4709 66be
000003d0: f273 fabd 1461 cbbd 5b95 63be 60d0 ecbd
000003e0: 4816 e5bd 0958 d0bd 880d 2bbe 6c3a 1cbf
000003f0: f159 cbbe 5bdb 9dbd ac98 07bf ee49 26be

bn1.weight f4 [256]
0.67483 0.6326043 0.8015562 0.6763534 0.46022245 0.3751875 0.7842943 0.5087603
0.5914476 0.706498 0.3963792 0.55058664 0.6159594 0.57263035 0.4018389 0.44779915
0.48272827 0.6158315 0.34843075 0.56550914 0.5869764 0.7982404 0.6826906 0.562295
0.3581271 0.5386376 0.53376985 0.62068284 0.69138384 0.59279627 0.6876862 0.55643904
0.44774026 0.56574965 0.599235 0.40534493 0.4621659 0.5616961 0.46773052 0.47117227
0.6117786 0.50863093 0.49878067 0.47857267 0.65928453 0.6722935 0.40280572 0.46994975
0.5585979 0.78316915 0.5362549 0.54137164 0.47539145 0.57469 0.41185743 0.5767189
0.36557868 0.6452426 0.38030592 0.4557039 0.55268276 0.40691406 1.0231135 0.4417754
0.8860365 0.66767734 0.6552035 0.53328454 0.36235684 0.49470752 0.5761191 0.6277611
0.8184908 0.4951835 0.5828612 0.65463924 0.7547929 0.45584008 0.54591066 0.6979119
0.54917514 0.8381253 0.9324939 0.6151252 0.9841796 0.5730703 0.61815435 0.65984774
0.48436043 0.70852804 0.4184104 0.5598758 0.43817428 0.48275885 0.5236322 0.523876
0.4270657 0.6060044 0.44604808 -0.39468324 0.89833146 0.40190133 0.6779221 0.48826373
0.39554167 0.47593915 0.543288 0.36721465 0.52033496 0.47392282 0.45456722 0.49051067
0.5023827 0.6133779 0.5328957 0.46773648 -0.35956332 0.5411102 1.0346267 0.69122386
0.66072196 0.5520493 0.5527873 0.59246874 0.76285535 0.6753343 0.6687033 0.48243377
0.74215084 0.6136369 0.3823136 0.6077094 0.5613936 0.4664693 0.44911227 0.62104017
0.75207025 0.61384666 0.77386254 0.6316279 0.50378424 0.68064964 0.5695463 0.2819533
0.82124966 1.0706435 0.58836323 0.6215139 0.6486185 0.52499 0.46337497 0.6112092
0.68825483 0.6016491 0.3933865 0.4303881 0.7465047 0.51987666 0.7546272 0.6083866
0.7152933 0.44589254 0.45998996 0.80224156 0.37017432 0.434447 0.4612343 0.6277897
0.69562805 0.5547261 0.43173018 0.5417328 0.6053022 0.45615527 0.44825044 0.5401026
0.7365243 0.42681715 0.75011504 0.56184286 0.78932685 0.5201398 0.463848 0.6448974
0.5074681 0.5562611 0.9372615 0.39894438 0.5811791 0.7282551 0.50147223 0.42998552
0.60058945 0.68400085 0.99486345 0.6272007 0.59044266 0.70414615 0.65415764 0.5389254
0.47848004 0.6332806 0.5323255 0.54958034 1.2301991 0.73033494 0.38403597 0.7611339
0.52060664 0.48457918 0.68745583 0.44952926 0.57299083 0.6939731 0.42798677 0.51679856
0.38937816 0.5903011 0.6425883 0.46630242 0.555972 0.6904168 0.55391216 0.531315
0.64689493 0.75054157 0.6656084 0.55899787 0.59323275 0.8014386 0.62077487 0.6260235
0.6398953 0.35974595 0.36494976 0.50046307 1.2306863 0.69048727 0.42459854 0.50542814
0.8986395 0.5712559 1.2435633 0.5293459 0.69969463 0.47861418 0.5543345 0.7214319
0.6584052 0.5035524 0.75350815 0.6503323 0.49119323 0.49777442 0.4010391 0.50768715
00000000: a9c1 2c3f 5bf2 213f ca32 4d3f 7f25 2d3f
00000010: 47a2 eb3e 9318 c03e 83c7 483f 1d3e 023f
00000020: 1c69 173f 0edd 343f 37f2 ca3e 3ff3 0c3f
00000030: 84af 1d3f e797 123f d4bd cd3e ee45 e53e
00000040: 2928 f73e 22a7 1d3f 8465 b23e 35c5 103f
00000050: 1644 163f 7c59 4c3f d0c4 2e3f 91f2 0f3f
00000060: 6f5c b73e 27e4 093f 24a5 083f 12e5 1e3f
00000070: 88fe 303f 7fc1 173f 340c 303f ca72 0e3f
00000080: 363e e53e f8d4 103f 7767 193f 5f89 cf3e
00000090: 02a1 ec3e 51cb 0f3f 607a ef3e 7e3d f13e
000000a0: 869d 1c3f a335 023f 2e60 ff3e 7a07 f53e
000000b0: dfc6 283f 6d1b 2c3f 8d3c ce3e 419d f03e
000000c0: 4600 0f3f c67d 483f 0048 093f 5597 0a3f
000000d0: 8266 f33e e21e 133f fade d23e daa3 133f
000000e0: 212d bb3e 9e2e 253f 75b7 c23e 0652 e93e
000000f0: 9e7c 0d3f 0a57 d03e 62f5 823f 6330 e23e
00000100: 4ad3 623f e7ec 2a3f 6bbb 273f 5685 083f
00000110: d686 b93e 4e4a fd3e 8b7c 133f f4b4 203f
00000120: 9d88 513f b188 fd3e 6436 153f 7096 273f
00000130: 1c3a 413f df63 e93e cdc0 0b3f 5baa 323f
00000140: be96 0c3f 618f 563f ecb7 6e3f d878 1d3f
00000150: 32f3 7b3f bcb4 123f 5d3f 1e3f c8eb 283f
00000160: 17fe f73e 1862 353f e339 d63e 0554 0f3f
00000170: 6158 e03e 2b2c f73e c30c 063f bd1c 063f
00000180: 5ba8 da3e 1b23 1b3f 6a60 e43e ec13 cabe
00000190: 0df9 653f 03c6 cd3e 4e8c 2d3f b4fd f93e
000001a0: 7084 ca3e 4cae f33e ec14 0b3f 8f03 bc3e
000001b0: ac34 053f 03a6 f23e 09bd e83e 3724 fb3e
000001c0: 279c 003f 5606 1d3f da6b 083f 287b ef3e
000001d0: af18 b8be 3386 0a3f a66e 843f 0cf4 303f
000001e0: 1325 293f 1a53 0d3f 7883 0d3f 08ac 173f
000001f0: 7d4a 433f b5e2 2c3f 2430 2b3f 8f01 f73e
00000200: 99fd 3d3f 4f17 1d3f 9cbe c33e d892 1b3f
00000210: 7eb7 0f3f 10d5 ee3e 0bf2 e53e 7dfc 1e3f
00000220: ad87 403f 0e25 1d3f db1b 463f 5eb2 213f
00000230: 01f8 003f 0e3f 2e3f c9cd 113f 2f5c 903e
00000240: 6b3d 523f d90a 893f f99e 163f 891b 1f3f
00000250: dd0b 263f bf65 063f 7c3f ed3e 3578 1c3f
00000260: 7831 303f ad05 1a3f f569 c93e d45b dc3e
00000270: ef1a 3f3f a316 053f 402f 413f 39bf 1b3f
00000280: 761d 373f 074c e43e ce83 eb3e b45f 4d3f
00000290: 7d87 bd3e d66f de3e e726 ec3e d3b6 203f
000002a0: ae14 323f 8802 0e3f bd0b dd3e 00af 0a3f
000002b0: 16f5 1a3f 2f8d e93e 1581 e53e 2a44 0a3f
000002c0: db8c 3c3f c787 da3e 8a07 403f efd4 0f3f
000002d0: 5311 4a3f e227 053f 7c7d ed3e ff17 253f
000002e0: 6ee9 013f 2167 0e3f 5ff0 6f3f 7042 cc3e
000002f0: 27c8 143f ed6e 3a3f 7c60 003f 1027 dc3e
00000300: 3bc0 193f ae1a 2f3f 5faf 7e3f 3a90 203f
00000310: 4027 173f ec42 343f e076 273f 04f7 093f
00000320: 56fb f43e ad1e 223f 7c46 083f 4cb1 0c3f
00000330: 2a77 9d3f 3bf7 3a3f 5da0 c43e acd9 423f
00000340: 7a46 053f c31a f83e 1bfd 2f3f b328 e63e
00000350: 87af 123f 39a8 313f 1521 db3e e94c 043f
00000360: 935c c73e f91d 173f ab80 243f 31bf ee3e
00000370: 2e54 0e3f 28bf 303f 30cd 0d3f 4304 083f
00000380: e89a 253f 7e23 403f 5065 2a3f 7c1a 0f3f
00000390: 1ade 173f 152b 4d3f 1aeb 1e3f 1343 203f
000003a0: 2ed0 233f 9f30 b83e b2da ba3e 591e 003f
000003b0: 2187 9d3f c6c3 303f fb64 d93e bd63 013f
000003c0: 3d0d 663f d43d 123f 152d 9f3f 3783 073f
000003d0: 301f 333f eb0c f53e dee8 0d3f c3af 383f
000003e0: 3e8d 283f cfe8 003f e9e5 403f 2d7c 263f
000003f0: ae7d fb3e 4adc fe3e ff54 cd3e c9f7 013f

bn1.bias f4 [256]
-0.040489852 0.07354038 0.16092537 0.12452988 0.11997961 -0.07932779 0.24177969 0.1219224
-0.013844131 0.2971706 -0.03442753 0.19990206 0.14073507 0.15959404 0.1461559 -0.35701886
0.08072912 0.18445477 -0.0128375 -0.032963134 0.2777687 0.20415528 0.15372019 0.14667091
-0.1787977 0.11329556 0.3118791 -0.12537122 0.03773618 0.12154078 0.17436394 0.104449615
-0.1384821 0.28225738 -0.08672482 0.1714801 0.4908574 0.20449151 0.44049844 0.28842103
0.24935234 0.16480155 -0.007528796 0.10033127 0.10676471 0.010734544 0.10823339 0.023707462
0.0387946 0.05799331 0.12676558 0.13211833 0.26534224 -0.24167587 -0.008334561 0.051687196
0.23240763 0.07971152 0.24323814 -0.052074265 0.06814516 -0.00023380455 0.4167882 -0.104088545
0.24033158 0.21525966 0.18253028 0.24231276 -0.032170888 0.12771648 0.23944877 0.27531108
0.11051307 -0.05353497 -0.055571575 0.25221995 0.077263966 0.16017315 0.10464 0.07198002
0.42326596 0.33263192 0.19960701 0.46316507 0.24517345 0.017594086 0.18930806 0.06889065
0.03659318 -0.034859497 0.24821354 0.09455648 0.06857001 -0.005651885 0.3766528 -0.36941415
0.3549162 0.21963577 0.12715696 -0.37366354 0.13132413 0.2052368 0.11666333 0.28955805
0.059537884 -0.00010146232 0.044696316 0.14683463 -0.008537064 0.06434477 -0.124683864 0.06040373
0.259853 0.51710284 0.109003715 -0.029344074 -0.49905238 0.17702645 -0.06578893 0.059414167
0.14443736 0.040704854 0.095397055 0.24906112 0.14029604 0.30430853 -0.12750585 0.0068948288
-0.055895075 0.09519897 -0.3390462 0.15678577 0.1689651 0.079169795 -0.055666056 0.05615722
0.15988092 -0.110278465 0.21840788 0.11795184 0.31306195 -0.05108261 0.08592738 -0.094487265
0.1998066 0.14307332 0.07036439 0.099677846 0.16067724 0.328812 0.026172549 0.25114504
0.08100157 0.1263144 -0.09833297 -0.0053913994 -0.18216498 0.060506344 0.060924605 0.33370355
0.34105062 0.14299215 0.0911126 0.17033191 -0.3676288 0.09612968 -0.002571503 0.019440854
-0.06285078 -0.06976754 -0.07188922 0.16670577 0.12016663 0.033865146 0.2035162 0.06750436
0.22715594 0.06725912 0.40089637 0.007492805 -0.08842569 -0.11299865 0.32188326 0.21842802
0.11712149 0.122981295 0.013439175 -0.010640148 0.26791942 0.16478442 0.16740377 0.17175782
-0.3494399 0.29811147 0.10970768 0.34166965 0.23506105 0.1313612 0.11341011 0.45185813
0.097842716 -0.011018035 0.1363726 0.07496548 0.078919366 0.21604155 -0.049993966 0.0035308495
0.034831855 0.17882422 0.07462197 -0.09392299 0.17450793 0.13058348 0.07367696 0.063095056
0.17231408 0.57628447 0.40632778 0.08669444 0.31011954 0.07594955 0.06509342 -0.07768567
0.11114059 -0.013233566 0.0029580523 0.065393865 0.38536438 0.2202619 0.09818745 0.16628233
0.093362816 0.16062064 -0.0016084384 0.17288667 0.29381186 0.22835276 0.113437414 0.193241
0.1447188 0.03836182 0.07186226 0.041644834 -0.43116227 0.04595423 0.26852345 0.3642391
0.071495354 -0.07265568 0.04906457 0.37274018 0.04886954 0.20704232 0.48110533 0.13170083
00000000: b0d8 25bd 579c 963d 9fc9 243e 8609 ff3d
00000010: dfb7 f53d 9c76 a2bd 1895 773e 74b2 f93d
00000020: 7ed2 62bc bf26 983e e203 0dbd 20b3 4c3e
00000030: db1c 103e 9f6c 233e e4a9 153e 2dcb b6be
00000040: 4f55 a53d b6e1 3c3e 6154 52bc 5a04 07bd
00000050: b337 8e3e 150e 513e d368 1d3e e630 163e
00000060: bf16 37be 8107 e83d 9eae 9f3e 5061 00be
00000070: 4191 1a3d 5fea f83d 768c 323e aee9 d53d
00000080: 40ce 0dbe 0a84 903e c89c b1bd 7b98 2f3e
00000090: a951 fb3e 3966 513e 0389 e13e ecab 933e
000000a0: 3856 7f3e bdc1 283e 1eb4 f6bb 7b7a cd3d
000000b0: 75a7 da3d f1df 2f3c 78a9 dd3d 2736 c23c
000000c0: 16e7 1e3d 658a 6d3d d6ce 013e 074a 073e
000000d0: f0da 873e e179 77be af8d 08bc f4b5 533d
000000e0: 44fc 6d3e cb3f a33d 6b13 793e d34b 55bd
000000f0: b18f 8b3d 6e29 75b9 4365 d53e 602c d5bd
00000100: 7b19 763e 076d 5c3e 38e9 3a3e d620 783e
00000110: 9fc5 03bd 1cc8 023e 0f32 753e 93f5 8c3e
00000120: ad54 e23d 7c47 5bbd 059f 63bd f922 813e
00000130: 923c 9e3d 6e04 243e 7f4d d63d 436a 933d
00000140: 51b6 d83e bb4e aa3e c865 4c3e f923 ed3e
00000150: c00e 7b3e 7921 903c f9d9 413e 8b16 8d3d
00000160: bbe2 153d d5c8 0ebd b12b 7e3e d4a6 c13d
00000170: 6f6e 8c3d 7333 b9bb a3d8 c03e da23 bdbe
00000180: 93b7 b53e 33e8 603e 6f35 023e d450 bfbe
00000190: d579 063e 9829 523e 2fed ee3d f440 943e
000001a0: ffdd 733d 2bc8 d4b8 7c13 373d d15b 163e
000001b0: 0bdf 0bbc 31c7 833d 415a ffbd e769 773d
000001c0: 740b 853e da60 043f 573d df3d fc62 f0bc
000001d0: cb83 ffbe 6c46 353e 59bc 86bd 455c 733d
000001e0: 63e7 133e 22ba 263d 885f c33d e109 7f3e
000001f0: c4a9 0f3e 54ce 9b3e e590 02be 04ee e13b
00000200: 3cf2 64bd adf7 c23d 7797 adbe 738c 203e
00000210: 3005 2d3e c623 a23d 1702 64bd 1d05 663d
00000220: d3b7 233e add9 e1bd 51a6 5f3e bc90 f13d
00000230: a849 a03e 003c 51bd b2fa af3d 8a82 c1bd
00000240: 1a9a 4c3e d081 123e 351b 903d e623 cc3d
00000250: 9388 243e 0c5a a83e d067 d63c 1596 803e
00000260: 27e4 a53d 9058 013e cc62 c9bd 56aa b0bb
00000270: 7589 3abe 80d5 773d 148c 793d 31db aa3e
00000280: 309e ae3e 896c 123e 3e99 ba3d 7d6b 2e3e
00000290: d839 bcbe a3df c43d a986 28bb 6d42 9f3c
000002a0: e9b7 80bd 49e2 8ebd a83a 93bd ebb4 2a3e
000002b0: ec19 f63d 2eb6 0a3d 8d66 503e ba3f 8a3d
000002c0: 919b 683e 26bf 893d 4a42 cd3e 3486 f53b
000002d0: 8718 b5bd d66b e7bd e2cd a43e 98ab 5f3e
000002e0: 64dd ef3d 9edd fb3d fc2f 5c3c 0454 2ebc
000002f0: bc2c 893e 3fbd 283e e56b 2b3e 48e1 2f3e
00000300: c9e9 b2be 11a2 983e 6cae e03d 53ef ae3e
00000310: d8b3 703e 8d83 063e 8f43 e83d f359 e73e
00000320: c361 c83d fd84 34bc 42a5 0b3e 8087 993d
00000330: 7aa0 a13d ff39 5d3e 79c6 4cbd d365 673b
00000340: d9ab 0e3d b21d 373e 67d3 983d b25a c0bd
00000350: 35b2 323e adb7 053e f2e3 963d fb37 813d
00000360: 1a73 303e 6187 133f 320a d03e db8c b13d
00000370: fdc7 9e3e 708b 9b3d b34f 853d aa19 9fbd
00000380: ad9d e33d 99d1 58bc e2db 413b 38ed 853d
00000390: 7b4e c53e 568c 613e 8016 c93d ea45 2a3e
000003a0: 0135 bf3d bd79 243e 3dd2 d2ba 3409 313e
000003b0: 826e 963e 4ed5 693e e051 e83d f8e0 453e
000003c0: 2a31 143e 4921 1d3d 852c 933d c693 2a3d
000003d0: 4dc1 dcbe 813a 3c3d e87b 893e 8c7d ba3e
000003e0: 286c 923d 80cc 94bd eef7 483d cdd7 be3e
000003f0: 6d2b 483d e702 543e 7053 f63e 95dc 063e

bn1.running_mean f4 [256]
0.5716509 0.20870104 0.34011337 0.13366708 0.5480246 0.274299 0.4094173 0.53418505
0.3554279 0.4147941 0.14836195 0.23677926 0.15575075 0.10494372 0.47860378 0.3472049
0.37353158 0.28081235 0.27015457 0.47538182 0.14917141 0.11319253 0.4007966 0.20314784
0.39079982 0.5029924 0.10820936 0.33205983 0.12732556 0.09450124 0.5673194 0.3147797
0.2952169 0.297529 0.43667978 0.5074452 0.43458655 0.16367169 0.57961607 0.1558653
0.38947514 0.12694725 0.13054538 0.11867291 0.30607843 0.17820272 0.23198229 0.20859191
0.3612413 0.21970046 0.20796758 0.22541374 0.18421061 0.30271107 0.15602879 0.27752516
0.15193716 0.26086333 0.18662296 0.14105411 0.19884099 0.39858022 0.38550627 0.22574304
0.24246036 0.33783773 0.2781954 0.34480056 0.14050618 0.18008363 0.23342867 0.13708663
0.19220068 0.8548209 0.3232241 0.32998452 0.45943916 0.7216544 0.3740223 0.58432573
0.2686636 1.1758211 0.25311878 0.18391804 0.45687646 0.14364278 0.1784975 0.19876547
0.37100294 0.52595115 0.16621618 0.12182966 0.13148218 0.18591484 0.42392376 0.25096834
0.87559533 0.17498028 0.2150886 0.16279854 0.23597494 0.17917569 0.22152287 0.3267236
0.33241576 0.41483483 0.32507202 0.30585176 0.28023043 0.20849404 0.22002895 0.63952786
0.085088305 1.0341103 0.19034098 0.80963445 0.18214326 0.3871241 0.87158614 0.21200037
0.19936961 0.34610432 0.30760023 0.28223363 0.61478865 0.29919502 0.12839502 0.14015688
0.22403473 0.12508512 0.08761624 0.35121164 0.27292845 0.17602065 0.47798368 0.35387102
0.25543863 0.6656883 0.36739403 0.23304808 0.084620416 0.1938184 0.304577 0.17422403
0.6455168 0.42834112 0.12366399 0.6577966 0.28044838 0.20391737 0.09514679 0.5495344
0.38073853 0.29102078 0.10047616 0.7726724 0.15088668 0.13368054 0.36366296 0.5011361
0.28257674 0.1780251 0.2386838 1.0196784 0.3298793 0.13133354 0.29827768 0.21744655
0.16867813 0.2702326 0.20484169 0.10922444 0.32297984 0.33195126 0.25507978 0.15508176
0.20126103 0.13789722 0.8272929 0.20659238 0.10583065 0.3281107 0.40720552 0.32698128
0.15771219 0.657376 0.31260267 0.20358557 0.76806045 0.20218435 0.066236615 0.06795736
0.17058413 0.15894406 0.30190453 0.18245293 0.08889444 0.11665267 0.7289699 0.054372817
0.4283437 0.34964547 0.15789466 0.25998744 0.26789904 0.23164532 0.19406414 0.22747724
0.27847424 0.46482235 0.46238396 0.49315906 0.09654362 0.44872266 0.3393658 0.33537763
0.6252965 0.6004942 0.20419146 0.33649275 0.36220062 0.23575896 0.2529994 0.0912638
0.24961542 0.22814468 0.4596101 0.15207951 0.4930627 0.59039026 0.28541625 0.2913206
0.1584339 0.7500559 0.21201825 0.4203371 0.28120255 0.12954625 0.72324693 0.15880422
0.15541126 0.8754537 0.2520568 0.27280784 0.16762868 0.41879153 0.13360639 0.29609945
0.115969785 0.1433917 0.20746739 0.53125674 0.34287107 0.15836757 0.2562183 0.57827175
00000000: b757 123f bab5 553e 5723 ae3e 06e0 083e
00000010: 574b 0c3f eb70 8c3e 259f d13e 5ac0 083f
00000020: a5fa b53e e45f d43e 32ec 173e 4376 723e
00000030: 207d 1f3e bcec d63d 8e0b f53e d7c4 b13e
00000040: 883f bf3e a3c6 8f3e b351 8a3e 3f65 f33e
00000050: 64c0 183e 7cd1 e73d 3635 cd3e fd05 503e
00000060: ea16 c83e 1cc4 003f de9c dd3d bf03 aa3e
00000070: a261 023e de89 c13d d83b 113f ce2a a13e
00000080: ab26 973e b955 983e 7e94 df3e eee7 013f
00000090: 2182 de3e 8d99 273e b861 143f 279b 1f3e
000000a0: 4969 c73e 76fe 013e b0ad 053e c80a f33d
000000b0: 50b6 9c3e c67a 363e c48c 6d3e 1e99 553e
000000c0: 9ff4 b83e 28f9 603e 74f5 543e dcd2 663e
000000d0: b5a1 3c3e f2fc 9a3e 03c6 1f3e c717 8e3e
000000e0: 6a95 1b3e e18f 853e 171a 3f3e 7d70 103e
000000f0: f99c 4b3e b512 cc3e 1461 c53e 2f29 673e
00000100: 8747 783e 11f9 ac3e a16f 8e3e b389 b03e
00000110: dae0 0f3e d867 383e ed07 6f3e 7060 0c3e
00000120: 41d0 443e 8bd5 5a3f a17d a53e bbf3 a83e
00000130: 9c3b eb3e 58be 383f da7f bf3e 5f96 153f
00000140: 468e 893e 4e81 963f c998 813e 0355 3c3e
00000150: b6eb e93e 1817 133e 0cc8 363e 2d89 4b3e
00000160: 19f4 bd3e bca4 063f 9334 2a3e d481 f93d
00000170: 44a3 063e 7660 3e3e 890c d93e ec7e 803e
00000180: 0427 603f 082e 333e 3040 5c3e a9b4 263e
00000190: 6aa3 713e d579 373e e4d6 623e 5148 a73e
000001a0: 6632 aa3e 3b65 d43e d76f a63e 9a98 9c3e
000001b0: 5d7a 8f3e 767f 553e 454f 613e 19b8 233f
000001c0: c742 ae3d ba5d 843f bfe8 423e 3444 4f3f
000001d0: c383 3a3e 2135 c63e 4520 5f3f a016 593e
000001e0: 8c27 4c3e 9634 b13e c77d 9d3e ed80 903e
000001f0: ca62 1d3f 1730 993e fc79 033e 4985 0f3e
00000200: 5c69 653e 5016 003e 2570 b33d 03d2 b33e
00000210: 47bd 8b3e c23e 343e 47ba f43e 952e b53e
00000220: dac8 823e 8c6a 2a3f 121b bc3e 28a4 6e3e
00000230: 784d ad3d 5578 463e 84f1 9b3e c967 323e
00000240: 9740 253f 874f db3e 8c43 fd3d 5c65 283f
00000250: ee96 8f3e b7cf 503e 52dc c23d 49ae 0c3f
00000260: 29f0 c23e ad00 953e 72c6 cd3d dccd 453f
00000270: 0a82 1a3e 8de3 083e 0832 ba3e 754a 003f
00000280: e6ad 903e 364c 363e 8769 743e d284 823f
00000290: f1e5 a83e 4d7c 063e dab7 983e 4faa 5e3e
000002a0: f6b9 2c3e ed5b 8a3e 05c2 513e 10b1 df3d
000002b0: 9d5d a53e 84f5 a93e d199 823e c1cd 1e3e
000002c0: 5f17 4e3e ee34 0d3e 78c9 533f f48c 533e
000002d0: bdbd d83d 20fe a73e 3e7d d03e 176a a73e
000002e0: 4e7f 213e cb49 283f 750d a03e bc78 503e
000002f0: 9c9f 443f 6a09 4f3e 10a7 873d 3a2d 8b3d
00000300: 9bad 2e3e 3bc2 223e 3b93 9a3e f1d4 3a3e
00000310: 4a0e b63d 98e7 ee3d c59d 3a3f 08b6 5e3d
00000320: de4f db3e bb04 b33e 23af 213e 131d 853e
00000330: 102a 893e 6e34 6d3e c0b8 463e cbef 683e
00000340: 2d94 8e3e 32fd ed3e 97bd ec3e 587f fc3e
00000350: a9b8 c53d fabe e53e 5bc1 ad3e 9eb6 ab3e
00000360: 6e13 203f fdb9 193f 9117 513e c748 ac3e
00000370: 5c72 b93e cc6a 713e 2389 813e 84e8 ba3d
00000380: 2f9b 7f3e c29e 693e 0452 eb3e bbba 1b3e
00000390: b772 fc3e d123 173f 1422 923e f927 953e
000003a0: 7f3c 223e aa03 403f 501b 593e 6d36 d73e
000003b0: c8f9 8f3e c6a7 043e b626 393f 939d 223e
000003c0: 2124 1f3e bc1d 603f 970d 813e 78ad 8b3e
000003d0: daa6 2b3e d86b d63e 1dd0 083e 599a 973e
000003e0: 9181 ed3d 46d5 123e 5572 543e 7100 083f
000003f0: cc8c af3e 1c2b 223e 0c2f 833e 9e09 143f

bn1.running_var f4 [256]
0.43669328 0.3154394 0.4147267 0.1531365 1.0048425 0.38936433 0.58357424 0.5333968
0.3422921 0.4670651 0.17244257 0.20704727 0.179513 0.14007683 0.33717722 0.49250826
0.5522884 0.22171856 0.44211158 0.45503053 0.15007678 0.09762824 0.51156735 0.17559431
0.8410257 0.60965693 0.1115472 0.40804577 0.1903897 0.115745015 0.77211666 0.22771567
0.43489072 0.2814611 0.6604462 0.77658355 0.40655294 0.13671684 0.72940934 0.18916103
0.33878118 0.13433278 0.2167066 0.120537646 0.3264463 0.13808458 0.41457155 0.20208809
0.4519554 0.19209933 0.30756015 0.22286554 0.18809155 0.3482167 0.2442321 0.303594
0.18340385 0.2916586 0.29527047 0.15282452 0.32882175 0.5921791 0.3134171 0.30939305
0.26992577 0.33589306 0.20799078 0.49335665 0.15673454 0.19266048 0.2661516 0.18441686
0.18066189 0.9515213 0.51055145 0.4158758 0.5318682 1.1485767 0.5083358 0.76012665
0.26490986 0.7448078 0.2162175 0.14458962 0.42660788 0.122157864 0.22775738 0.21296725
0.40063223 0.7529118 0.17369735 0.12998247 0.14126186 0.31202537 0.55136335 0.2079305
0.6293619 0.4122024 0.20806752 0.16346645 0.21362934 0.27793226 0.1994562 0.36348638
0.48408252 0.49518883 0.41915753 0.5430358 0.34929386 0.2216502 0.21703726 0.3924247
0.06569103 0.70552105 0.22391097 1.088151 0.28265756 0.46474853 0.58379346 0.18394692
0.13486014 0.34290636 0.43767163 0.2705284 0.259733 0.2752283 0.1182918 0.16073383
0.21244276 0.14135325 0.08585346 0.25864843 0.2997621 0.18930493 0.68503946 0.37331742
0.2367396 0.897949 0.42640275 0.26652262 0.10851112 0.14793251 0.2848343 0.22296758
0.25917703 0.34122992 0.17098647 0.5995877 0.2685271 0.2012077 0.076966316 0.6861571
0.35038656 0.37350485 0.11977784 1.2055008 0.13630268 0.17054278 0.3627019 0.50527525
0.22559036 0.18269049 0.27494067 0.7243713 0.4639637 0.16216177 0.46376538 0.1951851
0.18401358 0.3042153 0.38127005 0.11017137 0.4619755 0.39095598 0.29752317 0.21202877
0.20778958 0.11991816 0.6153697 0.21095535 0.08219304 0.49124408 0.45754716 0.44872734
0.16726843 0.99826175 0.26645246 0.33821198 0.4353927 0.25214642 0.08858901 0.11683595
0.17282465 0.16945869 0.2933055 0.14536098 0.12152085 0.11219759 1.1755337 0.077509075
0.36484334 0.54822284 0.18577822 0.32117993 0.29506788 0.16871816 0.31476042 0.288266
0.27035078 0.59024554 0.38442752 0.7995642 0.098645225 0.45673922 0.4156544 0.37001684
0.7560033 0.5368991 0.24576056 0.34265238 0.53436226 0.23481905 0.22222814 0.07825085
0.2365273 0.27588937 0.51072186 0.41399038 0.4273358 0.46095958 0.23640747 0.26350248
0.15460575 0.8422148 0.39120865 0.4194347 0.24298081 0.14588632 1.1005279 0.17761627
0.13903973 0.9836667 0.24695887 0.23462863 0.1871978 0.42267928 0.21055065 0.2590595
0.12728347 0.14364697 0.16505496 0.6685449 0.4445843 0.15445873 0.30221847 0.61807185
00000000: 4396 df3e 4681 a13e 0f57 d43e d1cf 1c3e
00000010: ae9e 803f c35a c73e 1f65 153f b18c 083f
00000020: e940 af3e 2823 ef3e c994 303e 3304 543e
00000030: 42d2 373e 4d70 0f3e 7ea2 ac3e 0b2a fc3e
00000040: c662 0d3f 310a 633e 735c e23e c3f9 e83e
00000050: baad 193e 51f1 c73d 14f6 023f ffce 333e
00000060: 764d 573f 7a12 1c3f dc72 e43d 60eb d03e
00000070: 84f5 423e b90b ed3d 70a9 453f 4c2e 693e
00000080: ffa9 de3e ab1b 903e 0113 293f 2ece 463f
00000090: b527 d03e 80ff 0b3e 92ba 3a3f 6eb3 413e
000000a0: ba74 ad3e 888e 093e 56e8 5d3e 71dc f63d
000000b0: f823 a73e 0b66 0d3e b942 d43e 2ef0 4e3e
000000c0: b366 e73e b0b5 443e 8678 9d3e dd36 643e
000000d0: 129b 403e 7649 b23e fb17 7a3e ac70 9b3e
000000e0: 38ce 3b3e 4754 953e b12d 973e 087e 1c3e
000000f0: 535b a83e 0d99 173f 3578 a03e c468 9e3e
00000100: b633 8a3e 2dfa ab3e 89fb 543e 3e99 fc3e
00000110: 057f 203e ca48 453e 0645 883e c6d7 3c3e
00000120: 6eff 383e e696 733f 80b3 023f aced d43e
00000130: 8428 083f 9004 933f 4c22 023f a997 423f
00000140: 44a2 873e b9ab 3e3f 1f68 5d3e 4d0f 143e
00000150: 596c da3e e72d fa3d 3b39 693e 1614 5a3e
00000160: ab1f cd3e d4be 403f b8dd 313e 201a 053e
00000170: f3a6 103e cac1 9f3e 2626 0d3f bceb 543e
00000180: dd1d 213f 310c d33e a70f 553e c063 273e
00000190: a6c1 5a3e 234d 8e3e 3f3e 4c3e e31a ba3e
000001a0: aad9 f73e 6489 fd3e d19b d63e 6504 0b3f
000001b0: a5d6 b23e 45f8 623e 043f 5e3e e4eb c83e
000001c0: 0589 863d 079d 343f eb48 653e 8848 8b3f
000001d0: 7eb8 903e 85f3 ed3e 7d73 153f 955c 3c3e
000001e0: c718 0a3e 6c91 af3e 7f16 e03e b382 8a3e
000001f0: b9fb 843e b9ea 8c3e f942 f23d 6997 243e
00000200: 988a 593e e8be 103e f0d3 af3d 916d 843e
00000210: 6b7a 993e 27d9 413e bf5e 2f3f 7623 bf3e
00000220: de6b 723e fcdf 653f 7651 da3e a775 883e
00000230: 143b de3d 9f7b 173e cdd5 913e 9d51 643e
00000240: dab2 843e b0b5 ae3e 1417 2f3e 947e 193f
00000250: 627c 893e 6409 4e3e 84a0 9d3d fea7 2f3f
00000260: de65 b33e 073c bf3e 164e f53d da4d 9a3f
00000270: ee92 0b3e c4a2 2e3e 10b4 b93e b859 013f
00000280: 2901 673e 3713 3b3e 06c5 8c3e 6670 393f
00000290: a68c ed3e bc0d 263e a872 ed3e 9ade 473e
000002a0: 0e6e 3c3e 1cc2 9b3e d435 c33e 87a1 e13d
000002b0: 0e88 ec3e 622b c83e f554 983e 121e 593e
000002c0: cbc6 543e a797 f53d de88 1d3f ae04 583e
000002d0: d354 a83d 5884 fb3e 9f43 ea3e 97bf e53e
000002e0: 6a48 2b3e 158e 7f3f 756c 883e 1f2a ad3e
000002f0: cbeb de3e 5619 813e 286e b53d b047 ef3d
00000300: f2f8 303e 9486 2d3e 232c 963e 82d9 143e
00000310: ecdf f83d dac7 e53d e377 963f 14bd 9e3d
00000320: bfcc ba3e 5558 0c3f a53c 3e3e b271 a43e
00000330: 2313 973e 74c4 2c3e 4728 a13e 9a97 933e
00000340: 6b6b 8a3e 551a 173f afd3 c43e 3db0 4c3f
00000350: 8206 ca3d b9d9 e93e a7d0 d43e d972 bd3e
00000360: 6f89 413f 3872 093f a8a8 7b3e 2270 af3e
00000370: f7cb 083f 6874 703e c68f 633e fb41 a03d
00000380: 3634 723e 5f41 8d3e abbe 023f 8cf6 d33e
00000390: c2cb da3e e502 ec3e cd14 723e cce9 863e
000003a0: f850 1e3e 649b 573f 804c c83e 25c0 d63e
000003b0: f6cf 783e 3963 153e 19de 8c3f 0ae1 353e
000003c0: 6e60 0e3e 95d1 7b3f c9e2 7c3e 7d42 703e
000003d0: c8b0 3f3e 6b69 d83e 979a 573e 72a3 843e
000003e0: 9956 023e 3118 133e 2b04 293e c225 2b3f
000003f0: 8ea0 e33e 6e2a 1e3e 61bc 9a3e f539 1e3f

fc2.weight f4 [256, 256]
-0.022075778 -0.18589865 -0.25758812 -0.6069085 0.13918705 -0.039131667 -0.035287485 0.12194548
-0.07458017 0.11261617 0.2568339 0.06590246 -0.16236043 -0.28531954 0.035746936 -0.3687474
-0.15322128 0.17211723 0.12936528 -0.19164339 0.31120053 0.11023033 -0.05478632 -0.19505195
-0.25462228 -0.08270653 0.29398665 -0.062113706 -0.20665288 -0.59645045 -0.019824028 -0.09810078
-0.054005332 0.15247613 -0.2949912 0.19165927 0.12730183 -0.026962629 -0.07312836 0.080685504
0.1512094 0.12696224 0.2231036 -0.037079446 -0.29401317 -0.14814878 -0.14717734 -0.11531015
0.057790987 -0.2052553 0.012233572 -0.0783445 0.035673823 -0.26554802 0.030117325 -0.09723532
-0.30719405 -0.044036884 0.062351763 -0.20144206 -0.11510238 0.0985747 -0.121145725 -0.12006279
0.16629022 -0.56465155 0.21728545 -0.40471378 0.09420599 -0.2828565 -0.10562395 0.26238716
-0.052737236 0.05334791 0.195187 -0.021936677 0.15696573 -0.1752657 0.08793842 0.08455167
0.15319905 0.14128968 0.003405705 0.1831934 -0.045623086 0.048184883 -0.15944628 -0.042627733
-0.15972756 -0.18713292 -0.07206405 -0.307435 -0.49754846 0.124433614 -0.06214989 -0.10825886
0.10600032 0.03229739 0.14000995 0.38071874 0.12862241 0.010311868 0.0036495677 -0.09650768
0.09140507 -0.031491462 -0.15165864 0.18091355 0.16725846 -0.047427613 0.25857532 0.36245045
-0.24036044 -0.006567616 0.3758849 0.26351142 -0.037597083 -0.09351055 -0.29574883 0.29324055
0.23744276 0.117679216 0.24601838 -0.08279945 -0.020378456 -0.17460993 -0.073573254 -0.10456391
-0.065547325 0.15541299 0.02016312 -0.0448476 0.17551552 -0.34766728 -0.21651506 0.018738179
0.270821 -0.37990162 -0.015914394 -0.2195544 0.05997161 0.030981168 0.41696295 -0.30337518
-0.09300489 -0.0961195 -0.01866327 -0.040758025 0.29171094 0.16756402 0.1739694 0.19401297
-0.021361366 0.25308868 -0.41542128 0.16650037 0.00062009593 -0.5021066 -0.14470537 0.12832192
0.09643156 0.26493415 -0.21955277 -0.26171342 -0.011068826 0.047217663 -0.23455364 -0.16656494
-0.08167792 -0.075001225 -0.19397499 0.22198825 -0.39922982 0.15097979 -0.04975993 0.17213073
-0.11790495 -0.040630616 0.2785652 0.1346652 -0.17749023 -0.06543332 -0.12053006 0.28117552
-0.12120713 -0.2713178 -0.076003574 0.013249993 -0.12331511 -0.2091391 0.17814441 0.034588743
-0.10028609 0.10769363 0.3263452 0.09636621 -0.23784529 -0.047507804 -0.0066052987 0.46755743
0.03252133 -0.10994336 -0.11912594 -0.33789375 0.11148143 -0.038602725 -0.19824941 0.06275119
0.18376358 0.061941616 0.20902239 -0.23903438 -0.14647703 -0.14427724 -0.0065607703 0.29725978
-0.22527884 0.16030727 -0.26853746 -0.32430834 0.073926404 -0.28859243 -0.059985977 0.22679833
-0.17442866 -0.0674184 0.23069969 0.12877108 -0.24075872 0.12263925 0.010257786 0.10878837
-0.06341793 0.04596899 0.36775663 -0.27631631 -0.16442901 0.29918003 -0.031611107 0.15957002
0.21460627 0.23858926 0.20098303 -0.18860862 -0.26094484 -0.23348212 0.06425943 -0.21957779
0.09473006 -0.080752105 -0.098103285 -0.29694617 -0.097342245 0.5451381 0.17313163 0.0055637634
00000000: 43d8 b4bc 375c 3ebe 97e2 83be 5b5e 1bbf
00000010: 0d87 0e3e 8748 20bd 9c89 10bd 8dbe f93d
00000020: 7dbd 98bd 4ea3 e63d bc7f 833e def7 863d
00000030: d041 26be 6715 92be 616b 123d 76cc bcbe
00000040: 0ae6 1cbe 803f 303e 5578 043e 2a3e 44be
00000050: ad55 9f3e 70c0 e13d 9f67 60bd b3bb 47be
00000060: da5d 82be 0b62 a9bd 6b85 963e f16a 7ebd
00000070: d09c 53be fab0 18bf 0066 a2bc 10e9 c8bd
00000080: b234 5dbd b422 1c3e 1609 97be 5442 443e
00000090: 695b 023e bbe0 dcbc 52c4 95bd 713e a53d
000000a0: a3d6 1a3e 6402 023e 4575 643e 9ee0 17bd
000000b0: e588 96be 50b4 17be a8b5 16be ba27 ecbd
000000c0: 3eb6 6c3d 722e 52be 526f 483c 1573 a0bd
000000d0: b71e 123d e9f5 87be 9cb8 f63c 5023 c7bd
000000e0: 8a48 9dbe 0560 34bd 9064 7f3d d446 4ebe
000000f0: ccba ebbd 88e1 c93d 401b f8bd 7be3 f5bd
00000100: fc47 2a3e 018d 10bf 1480 5e3e a536 cfbe
00000110: 12ef c03d 91d2 90be 5f51 d8bd 9c57 863e
00000120: 0003 58bd 5783 5a3d 1adf 473e 8cb4 b3bc
00000130: a0bb 203e da78 33be 0f19 b43d 6d29 ad3d
00000140: 36e0 1c3e 3eae 103e 4032 5f3b 0d97 3b3e
00000150: 46df 3abd 835d 453d e345 23be 6b9a 2ebd
00000160: 9f8f 23be c69f 3fbe 5196 93bd 1f68 9dbe
00000170: acbe febe 0dd7 fe3d e290 7ebd d2b6 ddbd
00000180: b216 d93d 454a 043d c55e 0f3e 91ed c23e
00000190: 98b5 033e 1cf3 283c 962d 6f3b d2a5 c5bd
000001a0: 9532 bb3d 31fd 00bd 674c 1bbe 6741 393e
000001b0: cd45 2b3e 7543 42bd fc63 843e 1b93 b93e
000001c0: 0c21 76be 2835 d7bb fc73 c03e f8ea 863e
000001d0: 66ff 19bd 7682 bfbd 646c 97be a023 963e
000001e0: 3224 733e cd01 f13d 3eec 7b3e c292 a9bd
000001f0: b8f0 a6bc f2cc 32be 93ad 96bd 9a25 d6bd
00000200: ad3d 86bd 9524 1f3e 212d a53c 1eb2 37bd
00000210: 57ba 333e 7201 b2be 20b6 5dbe cf80 993c
00000220: 0da9 8a3e 7782 c2be e75e 82bc ded2 60be
00000230: caa4 753d 38cc fd3c 2b7c d53e fe53 9bbe
00000240: 5979 bebd 4dda c4bd b7e3 98bc e3f1 26bd
00000250: 235b 953e e795 2b3e 0925 323e 56ab 463e
00000260: 08fe aebc d794 813e 19b2 d4be 137f 2a3e
00000270: ef8d 223a 0f8a 00bf a52d 14be d266 033e
00000280: e97d c53d 73a5 873e 71d2 60be 4dff 85be
00000290: 055a 35bc 4f67 413d d42e 70be 0090 2abe
000002a0: c146 a7bd 3e9a 99bd 61a1 46be e350 633e
000002b0: da67 ccbe 729a 1a3e 12d1 4bbd 0a43 303e
000002c0: 2778 f1bd 4a6c 26bd 19a0 8e3e ade5 093e
000002d0: 00c0 35be e801 86bd 77d8 f6bd 3df6 8f3e
000002e0: 723b f8bd 2bea 8abe c3a7 9bbd 8016 593c
000002f0: a28c fcbd 8f28 56be 7d6b 363e edac 0d3d
00000300: cb62 cdbd 7a8e dc3d b816 a73e a65b c53d
00000310: b78d 73be 8b97 42bd 4371 d8bb b063 ef3e
00000320: 1635 053d fc29 e1bd 4df8 f3bd 6900 adbe
00000330: 6050 e43d e41d 1ebd e501 4bbe b283 803d
00000340: 852c 3c3e 7eb6 7d3d f709 563e 6ec5 74be
00000350: 13fe 15be 6abd 13be bbfb d6bb 6f32 983e
00000360: 7faf 66be 9727 243e be7d 89be be0b a6be
00000370: ba66 973d 63c2 93be dbb3 75bd d23d 683e
00000380: 6d9d 32be a812 8abd 8a3c 6c3e 91dc 033e
00000390: 7489 76be 492a fb3d 4610 283c 70cc de3d
000003a0: 42e1 81bd fb49 3c3d 994a bc3e 5579 8dbe
000003b0: 1460 28be 202e 993e a67a 01bd 5366 233e
000003c0: bfc1 5b3e be50 743e 7fce 4d3e 9e22 41be
000003d0: 909a 85be f015 6fbe 739a 833d 00d9 60be
000003e0: d501 c23d 5c61 a5bd 60ea c8bd 5409 98be
000003f0: 5f5b c7bd 2c8e 0b3f 6b49 313e 3b50 b63b

fc2.bias f4 [256]
0.18222447 -0.12968889 -0.23087922 -0.14238323 -0.19630548 -0.22777186 -0.123347916 0.10609425
-0.14538857 -0.22239959 -0.15073119 -0.19544965 -0.17219514 0.04535615 -0.30191907 -0.26237643
-0.10959841 -0.27069232 -0.12905227 -0.17851157 -0.14517309 -0.20771416 -0.10359196 -0.19362758
-0.25361067 -0.06735221 -0.12272611 -0.13714074 -0.09565506 -0.17089789 -0.168046 -0.30199376
-0.07429172 -0.2925516 -0.3144649 -0.118277565 -0.19224025 -0.19318098 -0.27928215 -0.21495023
-0.127652 -0.04950511 0.0056236414 -0.17067401 -0.1956634 -0.03406336 -0.15785553 -0.2313418
-0.24848914 -0.23337057 -0.1801051 -0.095786 -0.3086969 -0.010713088 -0.14886463 -0.3674424
-0.10311075 -0.28580004 -0.13776855 -0.15731914 -0.051470388 -0.09470495 -0.0620567 -0.2106558
-0.34052667 -0.14747638 -0.42827722 -0.16867319 -0.23580189 -0.12912755 -0.22801219 -0.24056232
0.1394439 -0.124560766 -0.030450117 -0.08157735 -0.2012036 -0.36345434 -0.09909238 -0.07259782
-0.14800234 -0.18187588 0.16365713 0.28617564 -0.16831112 0.0012886259 -0.13164108 -0.12954369
-0.1399173 -0.11356781 -0.30329135 -0.25946093 0.024070963 -0.23849717 -0.047962695 -0.23265521
-0.20109513 -0.21605104 -0.19144417 -0.21462914 -0.27869046 -0.30914822 0.12708336 -0.17499626
-0.28652322 -0.20140731 -0.012805082 -0.10556188 -0.09341031 -0.19228473 -0.1489039 -0.24767657
-0.061855916 -0.46457502 -0.136997 -0.24922517 -0.1498087 -0.2142725 -0.07902257 -0.15831994
-0.24847513 -0.25672022 -0.14265947 0.010334179 -0.0987539 -0.1450122 -0.25358588 -0.13947378
-0.22273563 -0.25408494 -0.0038620855 -0.058568146 -0.12526968 -0.14277276 -0.18222643 -0.14468738
-0.30145547 -0.3493327 -0.097662255 -0.0957035 -0.30847925 -0.24801749 -0.073972136 -0.20725055
-0.11881944 -0.11079107 -0.16455926 0.049734566 -0.13113683 -0.35601175 -0.18293643 -0.10986369
-0.07221084 -0.08426876 -0.06488979 -0.039586663 -0.12515673 -0.17855844 -0.16043752 -0.19472952
-0.21496382 0.01803584 -0.24947593 -0.32887444 -0.015897606 -0.11971175 -0.30143124 -0.3439762
-0.21113795 0.052510913 -0.08413322 -0.17679286 -0.15349647 -0.06910352 -0.35476413 -0.15200035
-0.08907497 -0.16938762 -0.14759348 -0.09932359 -0.3495269 -0.3208477 -0.074094206 -0.20770366
-0.35971057 -0.22247368 -0.2458679 -0.17317802 -0.13266863 -0.30304033 -0.22305481 -0.11523351
-0.2362262 -0.15972508 -0.12265366 -0.14477324 -0.16168982 0.14386812 -0.12425225 -0.33657548
-0.17412686 -0.18595375 -0.19724458 -0.06812761 -0.17940198 -0.30932182 -0.14371215 -0.13033722
-0.27530867 -0.2346368 -0.24259508 0.019440504 -0.27961466 -0.19045895 -0.041176878 -0.18422721
-0.016315434 -0.15931937 -0.20626022 -0.0074571236 -0.23210996 -0.18258308 -0.28965825 -0.4001527
0.07273795 -0.12897855 0.005449784 0.16134413 -0.050462026 -0.12733647 0.019382285 -0.16597876
-0.13089675 -0.3280957 -0.18276435 0.13278477 -0.117066726 -0.12604411 -0.2196811 0.015951501
-0.3204209 -0.17405115 -0.11564571 -0.21117397 -0.48433328 -0.2676414 -0.04551587 -0.24813128
-0.036323365 -0.020843176 -0.49967128 -0.16541266 -0.29501876 -0.19962484 -0.07069791 -0.12629299
00000000: 0d99 3a3e 2acd 04be 9a6b 6cbe e9cc 11be
00000010: 4e04 49be 073d 69be d59d fcbd f147 d93d
00000020: bee0 14be b8bc 63be 4759 1abe f423 48be
00000030: ec53 30be 5fc7 393d 2395 9abe 3456 86be
00000040: 2275 e0bd 2f98 8abe 4726 04be bdcb 36be
00000050: 41a8 14be 05b3 54be 0628 d4bd 4f46 46be
00000060: 42d9 81be f5ef 89bd d457 fbbd 9f6e 0cbe
00000070: cde6 c3bd dbff 2ebe 4014 2cbe ed9e 9abe
00000080: 4226 98bd 53c9 95be 8b01 a1be 823b f2bd
00000090: a1da 44be 3cd1 45be 12fe 8ebe ea1b 5cbe
000000a0: 35b7 02be dfc5 4abd 8646 b83b 2bc5 2ebe
000000b0: fd5b 48be 0686 0bbd e1a4 21be dde4 6cbe
000000c0: f073 7ebe b2f8 6ebe 796d 38be 732b c4bd
000000d0: 850d 9ebe f385 2fbc f86f 18be 6921 bcbe
000000e0: bb2b d3bd 6254 92be 3313 0dbe 4518 21be
000000f0: 9dd2 52bd abf4 c1bd 2b2f 7ebd 27b6 57be
00000100: 8359 aebe 0c04 17be 2747 dbbe aab8 2cbe
00000110: 0d76 71be 033a 04be 077c 69be f855 76be
00000120: 62ca 0e3e b719 ffbd 8672 f9bc 0712 a7bd
00000130: 5108 4ebe b016 babe f2f0 cabd 2aae 94bd
00000140: ed8d 17be ac3d 3abe bc95 273e 9d85 923e
00000150: c059 2cbe 1ce7 a83a ebcc 06be 1aa7 04be
00000160: 7b46 0fbe 3d96 e8bd 0149 9bbe 10d8 84be
00000170: 7830 c53c 9a38 74be 8874 44bd 2b3d 6ebe
00000180: e2eb 4dbe 7c3c 5dbe f109 44be bec7 5bbe
00000190: 84b0 8ebe ad48 9ebe 2422 023e 3832 33be
000001a0: 2cb3 92be b83d 4ebe 68cc 51bc d430 d8bd
000001b0: e84d bfbd 4ae6 44be 447a 18be ed9e 7dbe
000001c0: a15c 7dbd c7dc edbe f148 0cbe e234 7fbe
000001d0: 7467 19be 406a 5bbe 96d6 a1bd 9f1e 22be
000001e0: 4470 7ebe d570 83be 5315 12be b050 293c
000001f0: 7c3f cabd 147e 14be 02d6 81be 37d2 0ebe
00000200: cf14 64be 6c17 82be 0b1b 7dbb 27e5 6fbd
00000210: b246 00be 0633 12be 9199 3abe ee28 14be
00000220: 5f58 9abe bcdb b2be 2603 c8bd 3200 c4bd
00000230: fef0 9dbe 4cf8 7dbe b47e 97bd 7d39 54be
00000240: 9b57 f3bd 6ee6 e2bd 3982 28be 79b6 4b3d
00000250: bc48 06be 2c47 b6be b053 3bbe 3700 e1bd
00000260: 47e3 93bd 1a95 acbd f0e4 84bd a025 22bd
00000270: 1629 00be 06d8 36be bc49 24be 2d67 47be
00000280: 7a1f 5cbe e6bf 933c 9e76 7fbe 3b62 a8be
00000290: b23b 82bc 6f2b f5bd 3255 9abe a61d b0be
000002a0: 8c34 58be af15 573d 0a4e acbd 3009 35be
000002b0: 2e2e 1dbe 2586 8dbd a5a3 b5be fba5 1bbe
000002c0: f06c b6bd f373 2dbe bf22 17be 2b6a cbbd
000002d0: 31f5 b2be 2646 a4be b4be 97bd 45b0 54be
000002e0: fc2b b8be 24d0 63be cbc4 7bbe 9455 31be
000002f0: 49da 07be 1a28 9bbe 7b68 64be 8cff ebbd
00000300: 48e5 71be f98e 23be d831 fbbd 703f 14be
00000310: 0492 25be 2a52 133e f777 febd 9f53 acbe
00000320: 504e 32be a96a 3ebe 7cfa 49be 7d86 8bbd
00000330: 27b5 37be 6e5f 9ebe 4729 13be 1f77 05be
00000340: 42f5 8cbe a144 70be d86a 78be b141 9f3c
00000350: a729 8fbe ac07 43be 16a9 28bd 0fa6 3cbe
00000360: f2a7 85bc 9e24 23be e135 53be e35a f4bb
00000370: 3cae 6dbe 0ff7 3abe 164e 94be d1e0 ccbe
00000380: a2f7 943d f412 04be 1a94 b23b 6537 253e
00000390: 45b1 4ebd 7e64 02be 99c7 9e3c 56f6 29be
000003a0: cc09 06be 29fc a7be 9426 3bbe bbf8 073e
000003b0: aec0 efbd b511 01be 15f4 60be b9ac 823c
000003c0: 350e a4be 773a 32be a8d7 ecbd fd3d 58be
000003d0: 88fa f7be 4b08 89be d96e 3abd 2016 7ebe
000003e0: cfc7 14bd 4fbf aabc ead4 ffbe f061 29be
000003f0: b30c 97be 746a 4cbe 11ca 90bd f352 01be
